{"class_name": "Sequential", "config": {"name": "sequential_3", "layers": [{"class_name": "InputLayer", "config": {"batch_input_shape": [null, 364, 436, 3], "dtype": "float32", "sparse": false, "ragged": false, "name": "inception_resnet_v2_input"}}, {"class_name": "Functional", "config": {"name": "inception_resnet_v2", "layers": [{"class_name": "InputLayer", "config": {"batch_input_shape": [null, 364, 436, 3], "dtype": "float32", "sparse": false, "ragged": false, "name": "input_4"}, "name": "input_4", "inbound_nodes": []}, {"class_name": "Conv2D", "config": {"name": "conv2d_609", "trainable": false, "dtype": "float32", "filters": 32, "kernel_size": [3, 3], "strides": [2, 2], "padding": "valid", "data_format": "channels_last", "dilation_rate": [1, 1], "groups": 1, "activation": "linear", "use_bias": false, "kernel_initializer": {"class_name": "GlorotUniform", "config": {"seed": null}}, "bias_initializer": {"class_name": "Zeros", "config": {}}, "kernel_regularizer": null, "bias_regularizer": null, "activity_regularizer": null, "kernel_constraint": null, "bias_constraint": null}, "name": "conv2d_609", "inbound_nodes": [[["input_4", 0, 0, {}]]]}, {"class_name": "BatchNormalization", "config": {"name": "batch_normalization_609", "trainable": false, "dtype": "float32", "axis": [3], "momentum": 0.99, "epsilon": 0.001, "center": true, "scale": false, "beta_initializer": {"class_name": "Zeros", "config": {}}, "gamma_initializer": {"class_name": "Ones", "config": {}}, "moving_mean_initializer": {"class_name": "Zeros", "config": {}}, "moving_variance_initializer": {"class_name": "Ones", "config": {}}, "beta_regularizer": null, "gamma_regularizer": null, "beta_constraint": null, "gamma_constraint": null}, "name": "batch_normalization_609", "inbound_nodes": [[["conv2d_609", 0, 0, {}]]]}, {"class_name": "Activation", "config": {"name": "activation_609", "trainable": false, "dtype": "float32", "activation": "relu"}, "name": "activation_609", "inbound_nodes": [[["batch_normalization_609", 0, 0, {}]]]}, {"class_name": "Conv2D", "config": {"name": "conv2d_610", "trainable": false, "dtype": "float32", "filters": 32, "kernel_size": [3, 3], "strides": [1, 1], "padding": "valid", "data_format": "channels_last", "dilation_rate": [1, 1], "groups": 1, "activation": "linear", "use_bias": false, "kernel_initializer": {"class_name": "GlorotUniform", "config": {"seed": null}}, "bias_initializer": {"class_name": "Zeros", "config": {}}, "kernel_regularizer": null, "bias_regularizer": null, "activity_regularizer": null, "kernel_constraint": null, "bias_constraint": null}, "name": "conv2d_610", "inbound_nodes": [[["activation_609", 0, 0, {}]]]}, {"class_name": "BatchNormalization", "config": {"name": "batch_normalization_610", "trainable": false, "dtype": "float32", "axis": [3], "momentum": 0.99, "epsilon": 0.001, "center": true, "scale": false, "beta_initializer": {"class_name": "Zeros", "config": {}}, "gamma_initializer": {"class_name": "Ones", "config": {}}, "moving_mean_initializer": {"class_name": "Zeros", "config": {}}, "moving_variance_initializer": {"class_name": "Ones", "config": {}}, "beta_regularizer": null, "gamma_regularizer": null, "beta_constraint": null, "gamma_constraint": null}, "name": "batch_normalization_610", "inbound_nodes": [[["conv2d_610", 0, 0, {}]]]}, {"class_name": "Activation", "config": {"name": "activation_610", "trainable": false, "dtype": "float32", "activation": "relu"}, "name": "activation_610", "inbound_nodes": [[["batch_normalization_610", 0, 0, {}]]]}, {"class_name": "Conv2D", "config": {"name": "conv2d_611", "trainable": false, "dtype": "float32", "filters": 64, "kernel_size": [3, 3], "strides": [1, 1], "padding": "same", "data_format": "channels_last", "dilation_rate": [1, 1], "groups": 1, "activation": "linear", "use_bias": false, "kernel_initializer": {"class_name": "GlorotUniform", "config": {"seed": null}}, "bias_initializer": {"class_name": "Zeros", "config": {}}, "kernel_regularizer": null, "bias_regularizer": null, "activity_regularizer": null, "kernel_constraint": null, "bias_constraint": null}, "name": "conv2d_611", "inbound_nodes": [[["activation_610", 0, 0, {}]]]}, {"class_name": "BatchNormalization", "config": {"name": "batch_normalization_611", "trainable": false, "dtype": "float32", "axis": [3], "momentum": 0.99, "epsilon": 0.001, "center": true, "scale": false, "beta_initializer": {"class_name": "Zeros", "config": {}}, "gamma_initializer": {"class_name": "Ones", "config": {}}, "moving_mean_initializer": {"class_name": "Zeros", "config": {}}, "moving_variance_initializer": {"class_name": "Ones", "config": {}}, "beta_regularizer": null, "gamma_regularizer": null, "beta_constraint": null, "gamma_constraint": null}, "name": "batch_normalization_611", "inbound_nodes": [[["conv2d_611", 0, 0, {}]]]}, {"class_name": "Activation", "config": {"name": "activation_611", "trainable": false, "dtype": "float32", "activation": "relu"}, "name": "activation_611", "inbound_nodes": [[["batch_normalization_611", 0, 0, {}]]]}, {"class_name": "MaxPooling2D", "config": {"name": "max_pooling2d_12", "trainable": false, "dtype": "float32", "pool_size": [3, 3], "padding": "valid", "strides": [2, 2], "data_format": "channels_last"}, "name": "max_pooling2d_12", "inbound_nodes": [[["activation_611", 0, 0, {}]]]}, {"class_name": "Conv2D", "config": {"name": "conv2d_612", "trainable": false, "dtype": "float32", "filters": 80, "kernel_size": [1, 1], "strides": [1, 1], "padding": "valid", "data_format": "channels_last", "dilation_rate": [1, 1], "groups": 1, "activation": "linear", "use_bias": false, "kernel_initializer": {"class_name": "GlorotUniform", "config": {"seed": null}}, "bias_initializer": {"class_name": "Zeros", "config": {}}, "kernel_regularizer": null, "bias_regularizer": null, "activity_regularizer": null, "kernel_constraint": null, "bias_constraint": null}, "name": "conv2d_612", "inbound_nodes": [[["max_pooling2d_12", 0, 0, {}]]]}, {"class_name": "BatchNormalization", "config": {"name": "batch_normalization_612", "trainable": false, "dtype": "float32", "axis": [3], "momentum": 0.99, "epsilon": 0.001, "center": true, "scale": false, "beta_initializer": {"class_name": "Zeros", "config": {}}, "gamma_initializer": {"class_name": "Ones", "config": {}}, "moving_mean_initializer": {"class_name": "Zeros", "config": {}}, "moving_variance_initializer": {"class_name": "Ones", "config": {}}, "beta_regularizer": null, "gamma_regularizer": null, "beta_constraint": null, "gamma_constraint": null}, "name": "batch_normalization_612", "inbound_nodes": [[["conv2d_612", 0, 0, {}]]]}, {"class_name": "Activation", "config": {"name": "activation_612", "trainable": false, "dtype": "float32", "activation": "relu"}, "name": "activation_612", "inbound_nodes": [[["batch_normalization_612", 0, 0, {}]]]}, {"class_name": "Conv2D", "config": {"name": "conv2d_613", "trainable": false, "dtype": "float32", "filters": 192, "kernel_size": [3, 3], "strides": [1, 1], "padding": "valid", "data_format": "channels_last", "dilation_rate": [1, 1], "groups": 1, "activation": "linear", "use_bias": false, "kernel_initializer": {"class_name": "GlorotUniform", "config": {"seed": null}}, "bias_initializer": {"class_name": "Zeros", "config": {}}, "kernel_regularizer": null, "bias_regularizer": null, "activity_regularizer": null, "kernel_constraint": null, "bias_constraint": null}, "name": "conv2d_613", "inbound_nodes": [[["activation_612", 0, 0, {}]]]}, {"class_name": "BatchNormalization", "config": {"name": "batch_normalization_613", "trainable": false, "dtype": "float32", "axis": [3], "momentum": 0.99, "epsilon": 0.001, "center": true, "scale": false, "beta_initializer": {"class_name": "Zeros", "config": {}}, "gamma_initializer": {"class_name": "Ones", "config": {}}, "moving_mean_initializer": {"class_name": "Zeros", "config": {}}, "moving_variance_initializer": {"class_name": "Ones", "config": {}}, "beta_regularizer": null, "gamma_regularizer": null, "beta_constraint": null, "gamma_constraint": null}, "name": "batch_normalization_613", "inbound_nodes": [[["conv2d_613", 0, 0, {}]]]}, {"class_name": "Activation", "config": {"name": "activation_613", "trainable": false, "dtype": "float32", "activation": "relu"}, "name": "activation_613", "inbound_nodes": [[["batch_normalization_613", 0, 0, {}]]]}, {"class_name": "MaxPooling2D", "config": {"name": "max_pooling2d_13", "trainable": false, "dtype": "float32", "pool_size": [3, 3], "padding": "valid", "strides": [2, 2], "data_format": "channels_last"}, "name": "max_pooling2d_13", "inbound_nodes": [[["activation_613", 0, 0, {}]]]}, {"class_name": "Conv2D", "config": {"name": "conv2d_617", "trainable": false, "dtype": "float32", "filters": 64, "kernel_size": [1, 1], "strides": [1, 1], "padding": "same", "data_format": "channels_last", "dilation_rate": [1, 1], "groups": 1, "activation": "linear", "use_bias": false, "kernel_initializer": {"class_name": "GlorotUniform", "config": {"seed": null}}, "bias_initializer": {"class_name": "Zeros", "config": {}}, "kernel_regularizer": null, "bias_regularizer": null, "activity_regularizer": null, "kernel_constraint": null, "bias_constraint": null}, "name": "conv2d_617", "inbound_nodes": [[["max_pooling2d_13", 0, 0, {}]]]}, {"class_name": "BatchNormalization", "config": {"name": "batch_normalization_617", "trainable": false, "dtype": "float32", "axis": [3], "momentum": 0.99, "epsilon": 0.001, "center": true, "scale": false, "beta_initializer": {"class_name": "Zeros", "config": {}}, "gamma_initializer": {"class_name": "Ones", "config": {}}, "moving_mean_initializer": {"class_name": "Zeros", "config": {}}, "moving_variance_initializer": {"class_name": "Ones", "config": {}}, "beta_regularizer": null, "gamma_regularizer": null, "beta_constraint": null, "gamma_constraint": null}, "name": "batch_normalization_617", "inbound_nodes": [[["conv2d_617", 0, 0, {}]]]}, {"class_name": "Activation", "config": {"name": "activation_617", "trainable": false, "dtype": "float32", "activation": "relu"}, "name": "activation_617", "inbound_nodes": [[["batch_normalization_617", 0, 0, {}]]]}, {"class_name": "Conv2D", "config": {"name": "conv2d_615", "trainable": false, "dtype": "float32", "filters": 48, "kernel_size": [1, 1], "strides": [1, 1], "padding": "same", "data_format": "channels_last", "dilation_rate": [1, 1], "groups": 1, "activation": "linear", "use_bias": false, "kernel_initializer": {"class_name": "GlorotUniform", "config": {"seed": null}}, "bias_initializer": {"class_name": "Zeros", "config": {}}, "kernel_regularizer": null, "bias_regularizer": null, "activity_regularizer": null, "kernel_constraint": null, "bias_constraint": null}, "name": "conv2d_615", "inbound_nodes": [[["max_pooling2d_13", 0, 0, {}]]]}, {"class_name": "Conv2D", "config": {"name": "conv2d_618", "trainable": false, "dtype": "float32", "filters": 96, "kernel_size": [3, 3], "strides": [1, 1], "padding": "same", "data_format": "channels_last", "dilation_rate": [1, 1], "groups": 1, "activation": "linear", "use_bias": false, "kernel_initializer": {"class_name": "GlorotUniform", "config": {"seed": null}}, "bias_initializer": {"class_name": "Zeros", "config": {}}, "kernel_regularizer": null, "bias_regularizer": null, "activity_regularizer": null, "kernel_constraint": null, "bias_constraint": null}, "name": "conv2d_618", "inbound_nodes": [[["activation_617", 0, 0, {}]]]}, {"class_name": "BatchNormalization", "config": {"name": "batch_normalization_615", "trainable": false, "dtype": "float32", "axis": [3], "momentum": 0.99, "epsilon": 0.001, "center": true, "scale": false, "beta_initializer": {"class_name": "Zeros", "config": {}}, "gamma_initializer": {"class_name": "Ones", "config": {}}, "moving_mean_initializer": {"class_name": "Zeros", "config": {}}, "moving_variance_initializer": {"class_name": "Ones", "config": {}}, "beta_regularizer": null, "gamma_regularizer": null, "beta_constraint": null, "gamma_constraint": null}, "name": "batch_normalization_615", "inbound_nodes": [[["conv2d_615", 0, 0, {}]]]}, {"class_name": "BatchNormalization", "config": {"name": "batch_normalization_618", "trainable": false, "dtype": "float32", "axis": [3], "momentum": 0.99, "epsilon": 0.001, "center": true, "scale": false, "beta_initializer": {"class_name": "Zeros", "config": {}}, "gamma_initializer": {"class_name": "Ones", "config": {}}, "moving_mean_initializer": {"class_name": "Zeros", "config": {}}, "moving_variance_initializer": {"class_name": "Ones", "config": {}}, "beta_regularizer": null, "gamma_regularizer": null, "beta_constraint": null, "gamma_constraint": null}, "name": "batch_normalization_618", "inbound_nodes": [[["conv2d_618", 0, 0, {}]]]}, {"class_name": "Activation", "config": {"name": "activation_615", "trainable": false, "dtype": "float32", "activation": "relu"}, "name": "activation_615", "inbound_nodes": [[["batch_normalization_615", 0, 0, {}]]]}, {"class_name": "Activation", "config": {"name": "activation_618", "trainable": false, "dtype": "float32", "activation": "relu"}, "name": "activation_618", "inbound_nodes": [[["batch_normalization_618", 0, 0, {}]]]}, {"class_name": "AveragePooling2D", "config": {"name": "average_pooling2d_3", "trainable": false, "dtype": "float32", "pool_size": [3, 3], "padding": "same", "strides": [1, 1], "data_format": "channels_last"}, "name": "average_pooling2d_3", "inbound_nodes": [[["max_pooling2d_13", 0, 0, {}]]]}, {"class_name": "Conv2D", "config": {"name": "conv2d_614", "trainable": false, "dtype": "float32", "filters": 96, "kernel_size": [1, 1], "strides": [1, 1], "padding": "same", "data_format": "channels_last", "dilation_rate": [1, 1], "groups": 1, "activation": "linear", "use_bias": false, "kernel_initializer": {"class_name": "GlorotUniform", "config": {"seed": null}}, "bias_initializer": {"class_name": "Zeros", "config": {}}, "kernel_regularizer": null, "bias_regularizer": null, "activity_regularizer": null, "kernel_constraint": null, "bias_constraint": null}, "name": "conv2d_614", "inbound_nodes": [[["max_pooling2d_13", 0, 0, {}]]]}, {"class_name": "Conv2D", "config": {"name": "conv2d_616", "trainable": false, "dtype": "float32", "filters": 64, "kernel_size": [5, 5], "strides": [1, 1], "padding": "same", "data_format": "channels_last", "dilation_rate": [1, 1], "groups": 1, "activation": "linear", "use_bias": false, "kernel_initializer": {"class_name": "GlorotUniform", "config": {"seed": null}}, "bias_initializer": {"class_name": "Zeros", "config": {}}, "kernel_regularizer": null, "bias_regularizer": null, "activity_regularizer": null, "kernel_constraint": null, "bias_constraint": null}, "name": "conv2d_616", "inbound_nodes": [[["activation_615", 0, 0, {}]]]}, {"class_name": "Conv2D", "config": {"name": "conv2d_619", "trainable": false, "dtype": "float32", "filters": 96, "kernel_size": [3, 3], "strides": [1, 1], "padding": "same", "data_format": "channels_last", "dilation_rate": [1, 1], "groups": 1, "activation": "linear", "use_bias": false, "kernel_initializer": {"class_name": "GlorotUniform", "config": {"seed": null}}, "bias_initializer": {"class_name": "Zeros", "config": {}}, "kernel_regularizer": null, "bias_regularizer": null, "activity_regularizer": null, "kernel_constraint": null, "bias_constraint": null}, "name": "conv2d_619", "inbound_nodes": [[["activation_618", 0, 0, {}]]]}, {"class_name": "Conv2D", "config": {"name": "conv2d_620", "trainable": false, "dtype": "float32", "filters": 64, "kernel_size": [1, 1], "strides": [1, 1], "padding": "same", "data_format": "channels_last", "dilation_rate": [1, 1], "groups": 1, "activation": "linear", "use_bias": false, "kernel_initializer": {"class_name": "GlorotUniform", "config": {"seed": null}}, "bias_initializer": {"class_name": "Zeros", "config": {}}, "kernel_regularizer": null, "bias_regularizer": null, "activity_regularizer": null, "kernel_constraint": null, "bias_constraint": null}, "name": "conv2d_620", "inbound_nodes": [[["average_pooling2d_3", 0, 0, {}]]]}, {"class_name": "BatchNormalization", "config": {"name": "batch_normalization_614", "trainable": false, "dtype": "float32", "axis": [3], "momentum": 0.99, "epsilon": 0.001, "center": true, "scale": false, "beta_initializer": {"class_name": "Zeros", "config": {}}, "gamma_initializer": {"class_name": "Ones", "config": {}}, "moving_mean_initializer": {"class_name": "Zeros", "config": {}}, "moving_variance_initializer": {"class_name": "Ones", "config": {}}, "beta_regularizer": null, "gamma_regularizer": null, "beta_constraint": null, "gamma_constraint": null}, "name": "batch_normalization_614", "inbound_nodes": [[["conv2d_614", 0, 0, {}]]]}, {"class_name": "BatchNormalization", "config": {"name": "batch_normalization_616", "trainable": false, "dtype": "float32", "axis": [3], "momentum": 0.99, "epsilon": 0.001, "center": true, "scale": false, "beta_initializer": {"class_name": "Zeros", "config": {}}, "gamma_initializer": {"class_name": "Ones", "config": {}}, "moving_mean_initializer": {"class_name": "Zeros", "config": {}}, "moving_variance_initializer": {"class_name": "Ones", "config": {}}, "beta_regularizer": null, "gamma_regularizer": null, "beta_constraint": null, "gamma_constraint": null}, "name": "batch_normalization_616", "inbound_nodes": [[["conv2d_616", 0, 0, {}]]]}, {"class_name": "BatchNormalization", "config": {"name": "batch_normalization_619", "trainable": false, "dtype": "float32", "axis": [3], "momentum": 0.99, "epsilon": 0.001, "center": true, "scale": false, "beta_initializer": {"class_name": "Zeros", "config": {}}, "gamma_initializer": {"class_name": "Ones", "config": {}}, "moving_mean_initializer": {"class_name": "Zeros", "config": {}}, "moving_variance_initializer": {"class_name": "Ones", "config": {}}, "beta_regularizer": null, "gamma_regularizer": null, "beta_constraint": null, "gamma_constraint": null}, "name": "batch_normalization_619", "inbound_nodes": [[["conv2d_619", 0, 0, {}]]]}, {"class_name": "BatchNormalization", "config": {"name": "batch_normalization_620", "trainable": false, "dtype": "float32", "axis": [3], "momentum": 0.99, "epsilon": 0.001, "center": true, "scale": false, "beta_initializer": {"class_name": "Zeros", "config": {}}, "gamma_initializer": {"class_name": "Ones", "config": {}}, "moving_mean_initializer": {"class_name": "Zeros", "config": {}}, "moving_variance_initializer": {"class_name": "Ones", "config": {}}, "beta_regularizer": null, "gamma_regularizer": null, "beta_constraint": null, "gamma_constraint": null}, "name": "batch_normalization_620", "inbound_nodes": [[["conv2d_620", 0, 0, {}]]]}, {"class_name": "Activation", "config": {"name": "activation_614", "trainable": false, "dtype": "float32", "activation": "relu"}, "name": "activation_614", "inbound_nodes": [[["batch_normalization_614", 0, 0, {}]]]}, {"class_name": "Activation", "config": {"name": "activation_616", "trainable": false, "dtype": "float32", "activation": "relu"}, "name": "activation_616", "inbound_nodes": [[["batch_normalization_616", 0, 0, {}]]]}, {"class_name": "Activation", "config": {"name": "activation_619", "trainable": false, "dtype": "float32", "activation": "relu"}, "name": "activation_619", "inbound_nodes": [[["batch_normalization_619", 0, 0, {}]]]}, {"class_name": "Activation", "config": {"name": "activation_620", "trainable": false, "dtype": "float32", "activation": "relu"}, "name": "activation_620", "inbound_nodes": [[["batch_normalization_620", 0, 0, {}]]]}, {"class_name": "Concatenate", "config": {"name": "mixed_5b", "trainable": false, "dtype": "float32", "axis": 3}, "name": "mixed_5b", "inbound_nodes": [[["activation_614", 0, 0, {}], ["activation_616", 0, 0, {}], ["activation_619", 0, 0, {}], ["activation_620", 0, 0, {}]]]}, {"class_name": "Conv2D", "config": {"name": "conv2d_624", "trainable": false, "dtype": "float32", "filters": 32, "kernel_size": [1, 1], "strides": [1, 1], "padding": "same", "data_format": "channels_last", "dilation_rate": [1, 1], "groups": 1, "activation": "linear", "use_bias": false, "kernel_initializer": {"class_name": "GlorotUniform", "config": {"seed": null}}, "bias_initializer": {"class_name": "Zeros", "config": {}}, "kernel_regularizer": null, "bias_regularizer": null, "activity_regularizer": null, "kernel_constraint": null, "bias_constraint": null}, "name": "conv2d_624", "inbound_nodes": [[["mixed_5b", 0, 0, {}]]]}, {"class_name": "BatchNormalization", "config": {"name": "batch_normalization_624", "trainable": false, "dtype": "float32", "axis": [3], "momentum": 0.99, "epsilon": 0.001, "center": true, "scale": false, "beta_initializer": {"class_name": "Zeros", "config": {}}, "gamma_initializer": {"class_name": "Ones", "config": {}}, "moving_mean_initializer": {"class_name": "Zeros", "config": {}}, "moving_variance_initializer": {"class_name": "Ones", "config": {}}, "beta_regularizer": null, "gamma_regularizer": null, "beta_constraint": null, "gamma_constraint": null}, "name": "batch_normalization_624", "inbound_nodes": [[["conv2d_624", 0, 0, {}]]]}, {"class_name": "Activation", "config": {"name": "activation_624", "trainable": false, "dtype": "float32", "activation": "relu"}, "name": "activation_624", "inbound_nodes": [[["batch_normalization_624", 0, 0, {}]]]}, {"class_name": "Conv2D", "config": {"name": "conv2d_622", "trainable": false, "dtype": "float32", "filters": 32, "kernel_size": [1, 1], "strides": [1, 1], "padding": "same", "data_format": "channels_last", "dilation_rate": [1, 1], "groups": 1, "activation": "linear", "use_bias": false, "kernel_initializer": {"class_name": "GlorotUniform", "config": {"seed": null}}, "bias_initializer": {"class_name": "Zeros", "config": {}}, "kernel_regularizer": null, "bias_regularizer": null, "activity_regularizer": null, "kernel_constraint": null, "bias_constraint": null}, "name": "conv2d_622", "inbound_nodes": [[["mixed_5b", 0, 0, {}]]]}, {"class_name": "Conv2D", "config": {"name": "conv2d_625", "trainable": false, "dtype": "float32", "filters": 48, "kernel_size": [3, 3], "strides": [1, 1], "padding": "same", "data_format": "channels_last", "dilation_rate": [1, 1], "groups": 1, "activation": "linear", "use_bias": false, "kernel_initializer": {"class_name": "GlorotUniform", "config": {"seed": null}}, "bias_initializer": {"class_name": "Zeros", "config": {}}, "kernel_regularizer": null, "bias_regularizer": null, "activity_regularizer": null, "kernel_constraint": null, "bias_constraint": null}, "name": "conv2d_625", "inbound_nodes": [[["activation_624", 0, 0, {}]]]}, {"class_name": "BatchNormalization", "config": {"name": "batch_normalization_622", "trainable": false, "dtype": "float32", "axis": [3], "momentum": 0.99, "epsilon": 0.001, "center": true, "scale": false, "beta_initializer": {"class_name": "Zeros", "config": {}}, "gamma_initializer": {"class_name": "Ones", "config": {}}, "moving_mean_initializer": {"class_name": "Zeros", "config": {}}, "moving_variance_initializer": {"class_name": "Ones", "config": {}}, "beta_regularizer": null, "gamma_regularizer": null, "beta_constraint": null, "gamma_constraint": null}, "name": "batch_normalization_622", "inbound_nodes": [[["conv2d_622", 0, 0, {}]]]}, {"class_name": "BatchNormalization", "config": {"name": "batch_normalization_625", "trainable": false, "dtype": "float32", "axis": [3], "momentum": 0.99, "epsilon": 0.001, "center": true, "scale": false, "beta_initializer": {"class_name": "Zeros", "config": {}}, "gamma_initializer": {"class_name": "Ones", "config": {}}, "moving_mean_initializer": {"class_name": "Zeros", "config": {}}, "moving_variance_initializer": {"class_name": "Ones", "config": {}}, "beta_regularizer": null, "gamma_regularizer": null, "beta_constraint": null, "gamma_constraint": null}, "name": "batch_normalization_625", "inbound_nodes": [[["conv2d_625", 0, 0, {}]]]}, {"class_name": "Activation", "config": {"name": "activation_622", "trainable": false, "dtype": "float32", "activation": "relu"}, "name": "activation_622", "inbound_nodes": [[["batch_normalization_622", 0, 0, {}]]]}, {"class_name": "Activation", "config": {"name": "activation_625", "trainable": false, "dtype": "float32", "activation": "relu"}, "name": "activation_625", "inbound_nodes": [[["batch_normalization_625", 0, 0, {}]]]}, {"class_name": "Conv2D", "config": {"name": "conv2d_621", "trainable": false, "dtype": "float32", "filters": 32, "kernel_size": [1, 1], "strides": [1, 1], "padding": "same", "data_format": "channels_last", "dilation_rate": [1, 1], "groups": 1, "activation": "linear", "use_bias": false, "kernel_initializer": {"class_name": "GlorotUniform", "config": {"seed": null}}, "bias_initializer": {"class_name": "Zeros", "config": {}}, "kernel_regularizer": null, "bias_regularizer": null, "activity_regularizer": null, "kernel_constraint": null, "bias_constraint": null}, "name": "conv2d_621", "inbound_nodes": [[["mixed_5b", 0, 0, {}]]]}, {"class_name": "Conv2D", "config": {"name": "conv2d_623", "trainable": false, "dtype": "float32", "filters": 32, "kernel_size": [3, 3], "strides": [1, 1], "padding": "same", "data_format": "channels_last", "dilation_rate": [1, 1], "groups": 1, "activation": "linear", "use_bias": false, "kernel_initializer": {"class_name": "GlorotUniform", "config": {"seed": null}}, "bias_initializer": {"class_name": "Zeros", "config": {}}, "kernel_regularizer": null, "bias_regularizer": null, "activity_regularizer": null, "kernel_constraint": null, "bias_constraint": null}, "name": "conv2d_623", "inbound_nodes": [[["activation_622", 0, 0, {}]]]}, {"class_name": "Conv2D", "config": {"name": "conv2d_626", "trainable": false, "dtype": "float32", "filters": 64, "kernel_size": [3, 3], "strides": [1, 1], "padding": "same", "data_format": "channels_last", "dilation_rate": [1, 1], "groups": 1, "activation": "linear", "use_bias": false, "kernel_initializer": {"class_name": "GlorotUniform", "config": {"seed": null}}, "bias_initializer": {"class_name": "Zeros", "config": {}}, "kernel_regularizer": null, "bias_regularizer": null, "activity_regularizer": null, "kernel_constraint": null, "bias_constraint": null}, "name": "conv2d_626", "inbound_nodes": [[["activation_625", 0, 0, {}]]]}, {"class_name": "BatchNormalization", "config": {"name": "batch_normalization_621", "trainable": false, "dtype": "float32", "axis": [3], "momentum": 0.99, "epsilon": 0.001, "center": true, "scale": false, "beta_initializer": {"class_name": "Zeros", "config": {}}, "gamma_initializer": {"class_name": "Ones", "config": {}}, "moving_mean_initializer": {"class_name": "Zeros", "config": {}}, "moving_variance_initializer": {"class_name": "Ones", "config": {}}, "beta_regularizer": null, "gamma_regularizer": null, "beta_constraint": null, "gamma_constraint": null}, "name": "batch_normalization_621", "inbound_nodes": [[["conv2d_621", 0, 0, {}]]]}, {"class_name": "BatchNormalization", "config": {"name": "batch_normalization_623", "trainable": false, "dtype": "float32", "axis": [3], "momentum": 0.99, "epsilon": 0.001, "center": true, "scale": false, "beta_initializer": {"class_name": "Zeros", "config": {}}, "gamma_initializer": {"class_name": "Ones", "config": {}}, "moving_mean_initializer": {"class_name": "Zeros", "config": {}}, "moving_variance_initializer": {"class_name": "Ones", "config": {}}, "beta_regularizer": null, "gamma_regularizer": null, "beta_constraint": null, "gamma_constraint": null}, "name": "batch_normalization_623", "inbound_nodes": [[["conv2d_623", 0, 0, {}]]]}, {"class_name": "BatchNormalization", "config": {"name": "batch_normalization_626", "trainable": false, "dtype": "float32", "axis": [3], "momentum": 0.99, "epsilon": 0.001, "center": true, "scale": false, "beta_initializer": {"class_name": "Zeros", "config": {}}, "gamma_initializer": {"class_name": "Ones", "config": {}}, "moving_mean_initializer": {"class_name": "Zeros", "config": {}}, "moving_variance_initializer": {"class_name": "Ones", "config": {}}, "beta_regularizer": null, "gamma_regularizer": null, "beta_constraint": null, "gamma_constraint": null}, "name": "batch_normalization_626", "inbound_nodes": [[["conv2d_626", 0, 0, {}]]]}, {"class_name": "Activation", "config": {"name": "activation_621", "trainable": false, "dtype": "float32", "activation": "relu"}, "name": "activation_621", "inbound_nodes": [[["batch_normalization_621", 0, 0, {}]]]}, {"class_name": "Activation", "config": {"name": "activation_623", "trainable": false, "dtype": "float32", "activation": "relu"}, "name": "activation_623", "inbound_nodes": [[["batch_normalization_623", 0, 0, {}]]]}, {"class_name": "Activation", "config": {"name": "activation_626", "trainable": false, "dtype": "float32", "activation": "relu"}, "name": "activation_626", "inbound_nodes": [[["batch_normalization_626", 0, 0, {}]]]}, {"class_name": "Concatenate", "config": {"name": "block35_1_mixed", "trainable": false, "dtype": "float32", "axis": 3}, "name": "block35_1_mixed", "inbound_nodes": [[["activation_621", 0, 0, {}], ["activation_623", 0, 0, {}], ["activation_626", 0, 0, {}]]]}, {"class_name": "Conv2D", "config": {"name": "block35_1_conv", "trainable": false, "dtype": "float32", "filters": 320, "kernel_size": [1, 1], "strides": [1, 1], "padding": "same", "data_format": "channels_last", "dilation_rate": [1, 1], "groups": 1, "activation": "linear", "use_bias": true, "kernel_initializer": {"class_name": "GlorotUniform", "config": {"seed": null}}, "bias_initializer": {"class_name": "Zeros", "config": {}}, "kernel_regularizer": null, "bias_regularizer": null, "activity_regularizer": null, "kernel_constraint": null, "bias_constraint": null}, "name": "block35_1_conv", "inbound_nodes": [[["block35_1_mixed", 0, 0, {}]]]}, {"class_name": "Lambda", "config": {"name": "block35_1", "trainable": false, "dtype": "float32", "function": ["4wIAAAAAAAAAAgAAAAMAAABTAAAAcxQAAAB8AGQBGQB8AGQCGQB8ARQAFwBTACkDTukAAAAA6QEA\nAACpACkC2gZpbnB1dHPaBXNjYWxlcgMAAAByAwAAAPpiL3Vzci9sb2NhbC9saWIvcHl0aG9uMy42\nL2Rpc3QtcGFja2FnZXMvdGVuc29yZmxvdy9weXRob24va2VyYXMvYXBwbGljYXRpb25zL2luY2Vw\ndGlvbl9yZXNuZXRfdjIucHnaCDxsYW1iZGE+dAEAAPMAAAAA\n", null, null], "function_type": "lambda", "module": "tensorflow.python.keras.applications.inception_resnet_v2", "output_shape": [43, 52, 320], "output_shape_type": "raw", "output_shape_module": null, "arguments": {"scale": 0.17}}, "name": "block35_1", "inbound_nodes": [[["mixed_5b", 0, 0, {}], ["block35_1_conv", 0, 0, {}]]]}, {"class_name": "Activation", "config": {"name": "block35_1_ac", "trainable": false, "dtype": "float32", "activation": "relu"}, "name": "block35_1_ac", "inbound_nodes": [[["block35_1", 0, 0, {}]]]}, {"class_name": "Conv2D", "config": {"name": "conv2d_630", "trainable": false, "dtype": "float32", "filters": 32, "kernel_size": [1, 1], "strides": [1, 1], "padding": "same", "data_format": "channels_last", "dilation_rate": [1, 1], "groups": 1, "activation": "linear", "use_bias": false, "kernel_initializer": {"class_name": "GlorotUniform", "config": {"seed": null}}, "bias_initializer": {"class_name": "Zeros", "config": {}}, "kernel_regularizer": null, "bias_regularizer": null, "activity_regularizer": null, "kernel_constraint": null, "bias_constraint": null}, "name": "conv2d_630", "inbound_nodes": [[["block35_1_ac", 0, 0, {}]]]}, {"class_name": "BatchNormalization", "config": {"name": "batch_normalization_630", "trainable": false, "dtype": "float32", "axis": [3], "momentum": 0.99, "epsilon": 0.001, "center": true, "scale": false, "beta_initializer": {"class_name": "Zeros", "config": {}}, "gamma_initializer": {"class_name": "Ones", "config": {}}, "moving_mean_initializer": {"class_name": "Zeros", "config": {}}, "moving_variance_initializer": {"class_name": "Ones", "config": {}}, "beta_regularizer": null, "gamma_regularizer": null, "beta_constraint": null, "gamma_constraint": null}, "name": "batch_normalization_630", "inbound_nodes": [[["conv2d_630", 0, 0, {}]]]}, {"class_name": "Activation", "config": {"name": "activation_630", "trainable": false, "dtype": "float32", "activation": "relu"}, "name": "activation_630", "inbound_nodes": [[["batch_normalization_630", 0, 0, {}]]]}, {"class_name": "Conv2D", "config": {"name": "conv2d_628", "trainable": false, "dtype": "float32", "filters": 32, "kernel_size": [1, 1], "strides": [1, 1], "padding": "same", "data_format": "channels_last", "dilation_rate": [1, 1], "groups": 1, "activation": "linear", "use_bias": false, "kernel_initializer": {"class_name": "GlorotUniform", "config": {"seed": null}}, "bias_initializer": {"class_name": "Zeros", "config": {}}, "kernel_regularizer": null, "bias_regularizer": null, "activity_regularizer": null, "kernel_constraint": null, "bias_constraint": null}, "name": "conv2d_628", "inbound_nodes": [[["block35_1_ac", 0, 0, {}]]]}, {"class_name": "Conv2D", "config": {"name": "conv2d_631", "trainable": false, "dtype": "float32", "filters": 48, "kernel_size": [3, 3], "strides": [1, 1], "padding": "same", "data_format": "channels_last", "dilation_rate": [1, 1], "groups": 1, "activation": "linear", "use_bias": false, "kernel_initializer": {"class_name": "GlorotUniform", "config": {"seed": null}}, "bias_initializer": {"class_name": "Zeros", "config": {}}, "kernel_regularizer": null, "bias_regularizer": null, "activity_regularizer": null, "kernel_constraint": null, "bias_constraint": null}, "name": "conv2d_631", "inbound_nodes": [[["activation_630", 0, 0, {}]]]}, {"class_name": "BatchNormalization", "config": {"name": "batch_normalization_628", "trainable": false, "dtype": "float32", "axis": [3], "momentum": 0.99, "epsilon": 0.001, "center": true, "scale": false, "beta_initializer": {"class_name": "Zeros", "config": {}}, "gamma_initializer": {"class_name": "Ones", "config": {}}, "moving_mean_initializer": {"class_name": "Zeros", "config": {}}, "moving_variance_initializer": {"class_name": "Ones", "config": {}}, "beta_regularizer": null, "gamma_regularizer": null, "beta_constraint": null, "gamma_constraint": null}, "name": "batch_normalization_628", "inbound_nodes": [[["conv2d_628", 0, 0, {}]]]}, {"class_name": "BatchNormalization", "config": {"name": "batch_normalization_631", "trainable": false, "dtype": "float32", "axis": [3], "momentum": 0.99, "epsilon": 0.001, "center": true, "scale": false, "beta_initializer": {"class_name": "Zeros", "config": {}}, "gamma_initializer": {"class_name": "Ones", "config": {}}, "moving_mean_initializer": {"class_name": "Zeros", "config": {}}, "moving_variance_initializer": {"class_name": "Ones", "config": {}}, "beta_regularizer": null, "gamma_regularizer": null, "beta_constraint": null, "gamma_constraint": null}, "name": "batch_normalization_631", "inbound_nodes": [[["conv2d_631", 0, 0, {}]]]}, {"class_name": "Activation", "config": {"name": "activation_628", "trainable": false, "dtype": "float32", "activation": "relu"}, "name": "activation_628", "inbound_nodes": [[["batch_normalization_628", 0, 0, {}]]]}, {"class_name": "Activation", "config": {"name": "activation_631", "trainable": false, "dtype": "float32", "activation": "relu"}, "name": "activation_631", "inbound_nodes": [[["batch_normalization_631", 0, 0, {}]]]}, {"class_name": "Conv2D", "config": {"name": "conv2d_627", "trainable": false, "dtype": "float32", "filters": 32, "kernel_size": [1, 1], "strides": [1, 1], "padding": "same", "data_format": "channels_last", "dilation_rate": [1, 1], "groups": 1, "activation": "linear", "use_bias": false, "kernel_initializer": {"class_name": "GlorotUniform", "config": {"seed": null}}, "bias_initializer": {"class_name": "Zeros", "config": {}}, "kernel_regularizer": null, "bias_regularizer": null, "activity_regularizer": null, "kernel_constraint": null, "bias_constraint": null}, "name": "conv2d_627", "inbound_nodes": [[["block35_1_ac", 0, 0, {}]]]}, {"class_name": "Conv2D", "config": {"name": "conv2d_629", "trainable": false, "dtype": "float32", "filters": 32, "kernel_size": [3, 3], "strides": [1, 1], "padding": "same", "data_format": "channels_last", "dilation_rate": [1, 1], "groups": 1, "activation": "linear", "use_bias": false, "kernel_initializer": {"class_name": "GlorotUniform", "config": {"seed": null}}, "bias_initializer": {"class_name": "Zeros", "config": {}}, "kernel_regularizer": null, "bias_regularizer": null, "activity_regularizer": null, "kernel_constraint": null, "bias_constraint": null}, "name": "conv2d_629", "inbound_nodes": [[["activation_628", 0, 0, {}]]]}, {"class_name": "Conv2D", "config": {"name": "conv2d_632", "trainable": false, "dtype": "float32", "filters": 64, "kernel_size": [3, 3], "strides": [1, 1], "padding": "same", "data_format": "channels_last", "dilation_rate": [1, 1], "groups": 1, "activation": "linear", "use_bias": false, "kernel_initializer": {"class_name": "GlorotUniform", "config": {"seed": null}}, "bias_initializer": {"class_name": "Zeros", "config": {}}, "kernel_regularizer": null, "bias_regularizer": null, "activity_regularizer": null, "kernel_constraint": null, "bias_constraint": null}, "name": "conv2d_632", "inbound_nodes": [[["activation_631", 0, 0, {}]]]}, {"class_name": "BatchNormalization", "config": {"name": "batch_normalization_627", "trainable": false, "dtype": "float32", "axis": [3], "momentum": 0.99, "epsilon": 0.001, "center": true, "scale": false, "beta_initializer": {"class_name": "Zeros", "config": {}}, "gamma_initializer": {"class_name": "Ones", "config": {}}, "moving_mean_initializer": {"class_name": "Zeros", "config": {}}, "moving_variance_initializer": {"class_name": "Ones", "config": {}}, "beta_regularizer": null, "gamma_regularizer": null, "beta_constraint": null, "gamma_constraint": null}, "name": "batch_normalization_627", "inbound_nodes": [[["conv2d_627", 0, 0, {}]]]}, {"class_name": "BatchNormalization", "config": {"name": "batch_normalization_629", "trainable": false, "dtype": "float32", "axis": [3], "momentum": 0.99, "epsilon": 0.001, "center": true, "scale": false, "beta_initializer": {"class_name": "Zeros", "config": {}}, "gamma_initializer": {"class_name": "Ones", "config": {}}, "moving_mean_initializer": {"class_name": "Zeros", "config": {}}, "moving_variance_initializer": {"class_name": "Ones", "config": {}}, "beta_regularizer": null, "gamma_regularizer": null, "beta_constraint": null, "gamma_constraint": null}, "name": "batch_normalization_629", "inbound_nodes": [[["conv2d_629", 0, 0, {}]]]}, {"class_name": "BatchNormalization", "config": {"name": "batch_normalization_632", "trainable": false, "dtype": "float32", "axis": [3], "momentum": 0.99, "epsilon": 0.001, "center": true, "scale": false, "beta_initializer": {"class_name": "Zeros", "config": {}}, "gamma_initializer": {"class_name": "Ones", "config": {}}, "moving_mean_initializer": {"class_name": "Zeros", "config": {}}, "moving_variance_initializer": {"class_name": "Ones", "config": {}}, "beta_regularizer": null, "gamma_regularizer": null, "beta_constraint": null, "gamma_constraint": null}, "name": "batch_normalization_632", "inbound_nodes": [[["conv2d_632", 0, 0, {}]]]}, {"class_name": "Activation", "config": {"name": "activation_627", "trainable": false, "dtype": "float32", "activation": "relu"}, "name": "activation_627", "inbound_nodes": [[["batch_normalization_627", 0, 0, {}]]]}, {"class_name": "Activation", "config": {"name": "activation_629", "trainable": false, "dtype": "float32", "activation": "relu"}, "name": "activation_629", "inbound_nodes": [[["batch_normalization_629", 0, 0, {}]]]}, {"class_name": "Activation", "config": {"name": "activation_632", "trainable": false, "dtype": "float32", "activation": "relu"}, "name": "activation_632", "inbound_nodes": [[["batch_normalization_632", 0, 0, {}]]]}, {"class_name": "Concatenate", "config": {"name": "block35_2_mixed", "trainable": false, "dtype": "float32", "axis": 3}, "name": "block35_2_mixed", "inbound_nodes": [[["activation_627", 0, 0, {}], ["activation_629", 0, 0, {}], ["activation_632", 0, 0, {}]]]}, {"class_name": "Conv2D", "config": {"name": "block35_2_conv", "trainable": false, "dtype": "float32", "filters": 320, "kernel_size": [1, 1], "strides": [1, 1], "padding": "same", "data_format": "channels_last", "dilation_rate": [1, 1], "groups": 1, "activation": "linear", "use_bias": true, "kernel_initializer": {"class_name": "GlorotUniform", "config": {"seed": null}}, "bias_initializer": {"class_name": "Zeros", "config": {}}, "kernel_regularizer": null, "bias_regularizer": null, "activity_regularizer": null, "kernel_constraint": null, "bias_constraint": null}, "name": "block35_2_conv", "inbound_nodes": [[["block35_2_mixed", 0, 0, {}]]]}, {"class_name": "Lambda", "config": {"name": "block35_2", "trainable": false, "dtype": "float32", "function": ["4wIAAAAAAAAAAgAAAAMAAABTAAAAcxQAAAB8AGQBGQB8AGQCGQB8ARQAFwBTACkDTukAAAAA6QEA\nAACpACkC2gZpbnB1dHPaBXNjYWxlcgMAAAByAwAAAPpiL3Vzci9sb2NhbC9saWIvcHl0aG9uMy42\nL2Rpc3QtcGFja2FnZXMvdGVuc29yZmxvdy9weXRob24va2VyYXMvYXBwbGljYXRpb25zL2luY2Vw\ndGlvbl9yZXNuZXRfdjIucHnaCDxsYW1iZGE+dAEAAPMAAAAA\n", null, null], "function_type": "lambda", "module": "tensorflow.python.keras.applications.inception_resnet_v2", "output_shape": [43, 52, 320], "output_shape_type": "raw", "output_shape_module": null, "arguments": {"scale": 0.17}}, "name": "block35_2", "inbound_nodes": [[["block35_1_ac", 0, 0, {}], ["block35_2_conv", 0, 0, {}]]]}, {"class_name": "Activation", "config": {"name": "block35_2_ac", "trainable": false, "dtype": "float32", "activation": "relu"}, "name": "block35_2_ac", "inbound_nodes": [[["block35_2", 0, 0, {}]]]}, {"class_name": "Conv2D", "config": {"name": "conv2d_636", "trainable": false, "dtype": "float32", "filters": 32, "kernel_size": [1, 1], "strides": [1, 1], "padding": "same", "data_format": "channels_last", "dilation_rate": [1, 1], "groups": 1, "activation": "linear", "use_bias": false, "kernel_initializer": {"class_name": "GlorotUniform", "config": {"seed": null}}, "bias_initializer": {"class_name": "Zeros", "config": {}}, "kernel_regularizer": null, "bias_regularizer": null, "activity_regularizer": null, "kernel_constraint": null, "bias_constraint": null}, "name": "conv2d_636", "inbound_nodes": [[["block35_2_ac", 0, 0, {}]]]}, {"class_name": "BatchNormalization", "config": {"name": "batch_normalization_636", "trainable": false, "dtype": "float32", "axis": [3], "momentum": 0.99, "epsilon": 0.001, "center": true, "scale": false, "beta_initializer": {"class_name": "Zeros", "config": {}}, "gamma_initializer": {"class_name": "Ones", "config": {}}, "moving_mean_initializer": {"class_name": "Zeros", "config": {}}, "moving_variance_initializer": {"class_name": "Ones", "config": {}}, "beta_regularizer": null, "gamma_regularizer": null, "beta_constraint": null, "gamma_constraint": null}, "name": "batch_normalization_636", "inbound_nodes": [[["conv2d_636", 0, 0, {}]]]}, {"class_name": "Activation", "config": {"name": "activation_636", "trainable": false, "dtype": "float32", "activation": "relu"}, "name": "activation_636", "inbound_nodes": [[["batch_normalization_636", 0, 0, {}]]]}, {"class_name": "Conv2D", "config": {"name": "conv2d_634", "trainable": false, "dtype": "float32", "filters": 32, "kernel_size": [1, 1], "strides": [1, 1], "padding": "same", "data_format": "channels_last", "dilation_rate": [1, 1], "groups": 1, "activation": "linear", "use_bias": false, "kernel_initializer": {"class_name": "GlorotUniform", "config": {"seed": null}}, "bias_initializer": {"class_name": "Zeros", "config": {}}, "kernel_regularizer": null, "bias_regularizer": null, "activity_regularizer": null, "kernel_constraint": null, "bias_constraint": null}, "name": "conv2d_634", "inbound_nodes": [[["block35_2_ac", 0, 0, {}]]]}, {"class_name": "Conv2D", "config": {"name": "conv2d_637", "trainable": false, "dtype": "float32", "filters": 48, "kernel_size": [3, 3], "strides": [1, 1], "padding": "same", "data_format": "channels_last", "dilation_rate": [1, 1], "groups": 1, "activation": "linear", "use_bias": false, "kernel_initializer": {"class_name": "GlorotUniform", "config": {"seed": null}}, "bias_initializer": {"class_name": "Zeros", "config": {}}, "kernel_regularizer": null, "bias_regularizer": null, "activity_regularizer": null, "kernel_constraint": null, "bias_constraint": null}, "name": "conv2d_637", "inbound_nodes": [[["activation_636", 0, 0, {}]]]}, {"class_name": "BatchNormalization", "config": {"name": "batch_normalization_634", "trainable": false, "dtype": "float32", "axis": [3], "momentum": 0.99, "epsilon": 0.001, "center": true, "scale": false, "beta_initializer": {"class_name": "Zeros", "config": {}}, "gamma_initializer": {"class_name": "Ones", "config": {}}, "moving_mean_initializer": {"class_name": "Zeros", "config": {}}, "moving_variance_initializer": {"class_name": "Ones", "config": {}}, "beta_regularizer": null, "gamma_regularizer": null, "beta_constraint": null, "gamma_constraint": null}, "name": "batch_normalization_634", "inbound_nodes": [[["conv2d_634", 0, 0, {}]]]}, {"class_name": "BatchNormalization", "config": {"name": "batch_normalization_637", "trainable": false, "dtype": "float32", "axis": [3], "momentum": 0.99, "epsilon": 0.001, "center": true, "scale": false, "beta_initializer": {"class_name": "Zeros", "config": {}}, "gamma_initializer": {"class_name": "Ones", "config": {}}, "moving_mean_initializer": {"class_name": "Zeros", "config": {}}, "moving_variance_initializer": {"class_name": "Ones", "config": {}}, "beta_regularizer": null, "gamma_regularizer": null, "beta_constraint": null, "gamma_constraint": null}, "name": "batch_normalization_637", "inbound_nodes": [[["conv2d_637", 0, 0, {}]]]}, {"class_name": "Activation", "config": {"name": "activation_634", "trainable": false, "dtype": "float32", "activation": "relu"}, "name": "activation_634", "inbound_nodes": [[["batch_normalization_634", 0, 0, {}]]]}, {"class_name": "Activation", "config": {"name": "activation_637", "trainable": false, "dtype": "float32", "activation": "relu"}, "name": "activation_637", "inbound_nodes": [[["batch_normalization_637", 0, 0, {}]]]}, {"class_name": "Conv2D", "config": {"name": "conv2d_633", "trainable": false, "dtype": "float32", "filters": 32, "kernel_size": [1, 1], "strides": [1, 1], "padding": "same", "data_format": "channels_last", "dilation_rate": [1, 1], "groups": 1, "activation": "linear", "use_bias": false, "kernel_initializer": {"class_name": "GlorotUniform", "config": {"seed": null}}, "bias_initializer": {"class_name": "Zeros", "config": {}}, "kernel_regularizer": null, "bias_regularizer": null, "activity_regularizer": null, "kernel_constraint": null, "bias_constraint": null}, "name": "conv2d_633", "inbound_nodes": [[["block35_2_ac", 0, 0, {}]]]}, {"class_name": "Conv2D", "config": {"name": "conv2d_635", "trainable": false, "dtype": "float32", "filters": 32, "kernel_size": [3, 3], "strides": [1, 1], "padding": "same", "data_format": "channels_last", "dilation_rate": [1, 1], "groups": 1, "activation": "linear", "use_bias": false, "kernel_initializer": {"class_name": "GlorotUniform", "config": {"seed": null}}, "bias_initializer": {"class_name": "Zeros", "config": {}}, "kernel_regularizer": null, "bias_regularizer": null, "activity_regularizer": null, "kernel_constraint": null, "bias_constraint": null}, "name": "conv2d_635", "inbound_nodes": [[["activation_634", 0, 0, {}]]]}, {"class_name": "Conv2D", "config": {"name": "conv2d_638", "trainable": false, "dtype": "float32", "filters": 64, "kernel_size": [3, 3], "strides": [1, 1], "padding": "same", "data_format": "channels_last", "dilation_rate": [1, 1], "groups": 1, "activation": "linear", "use_bias": false, "kernel_initializer": {"class_name": "GlorotUniform", "config": {"seed": null}}, "bias_initializer": {"class_name": "Zeros", "config": {}}, "kernel_regularizer": null, "bias_regularizer": null, "activity_regularizer": null, "kernel_constraint": null, "bias_constraint": null}, "name": "conv2d_638", "inbound_nodes": [[["activation_637", 0, 0, {}]]]}, {"class_name": "BatchNormalization", "config": {"name": "batch_normalization_633", "trainable": false, "dtype": "float32", "axis": [3], "momentum": 0.99, "epsilon": 0.001, "center": true, "scale": false, "beta_initializer": {"class_name": "Zeros", "config": {}}, "gamma_initializer": {"class_name": "Ones", "config": {}}, "moving_mean_initializer": {"class_name": "Zeros", "config": {}}, "moving_variance_initializer": {"class_name": "Ones", "config": {}}, "beta_regularizer": null, "gamma_regularizer": null, "beta_constraint": null, "gamma_constraint": null}, "name": "batch_normalization_633", "inbound_nodes": [[["conv2d_633", 0, 0, {}]]]}, {"class_name": "BatchNormalization", "config": {"name": "batch_normalization_635", "trainable": false, "dtype": "float32", "axis": [3], "momentum": 0.99, "epsilon": 0.001, "center": true, "scale": false, "beta_initializer": {"class_name": "Zeros", "config": {}}, "gamma_initializer": {"class_name": "Ones", "config": {}}, "moving_mean_initializer": {"class_name": "Zeros", "config": {}}, "moving_variance_initializer": {"class_name": "Ones", "config": {}}, "beta_regularizer": null, "gamma_regularizer": null, "beta_constraint": null, "gamma_constraint": null}, "name": "batch_normalization_635", "inbound_nodes": [[["conv2d_635", 0, 0, {}]]]}, {"class_name": "BatchNormalization", "config": {"name": "batch_normalization_638", "trainable": false, "dtype": "float32", "axis": [3], "momentum": 0.99, "epsilon": 0.001, "center": true, "scale": false, "beta_initializer": {"class_name": "Zeros", "config": {}}, "gamma_initializer": {"class_name": "Ones", "config": {}}, "moving_mean_initializer": {"class_name": "Zeros", "config": {}}, "moving_variance_initializer": {"class_name": "Ones", "config": {}}, "beta_regularizer": null, "gamma_regularizer": null, "beta_constraint": null, "gamma_constraint": null}, "name": "batch_normalization_638", "inbound_nodes": [[["conv2d_638", 0, 0, {}]]]}, {"class_name": "Activation", "config": {"name": "activation_633", "trainable": false, "dtype": "float32", "activation": "relu"}, "name": "activation_633", "inbound_nodes": [[["batch_normalization_633", 0, 0, {}]]]}, {"class_name": "Activation", "config": {"name": "activation_635", "trainable": false, "dtype": "float32", "activation": "relu"}, "name": "activation_635", "inbound_nodes": [[["batch_normalization_635", 0, 0, {}]]]}, {"class_name": "Activation", "config": {"name": "activation_638", "trainable": false, "dtype": "float32", "activation": "relu"}, "name": "activation_638", "inbound_nodes": [[["batch_normalization_638", 0, 0, {}]]]}, {"class_name": "Concatenate", "config": {"name": "block35_3_mixed", "trainable": false, "dtype": "float32", "axis": 3}, "name": "block35_3_mixed", "inbound_nodes": [[["activation_633", 0, 0, {}], ["activation_635", 0, 0, {}], ["activation_638", 0, 0, {}]]]}, {"class_name": "Conv2D", "config": {"name": "block35_3_conv", "trainable": false, "dtype": "float32", "filters": 320, "kernel_size": [1, 1], "strides": [1, 1], "padding": "same", "data_format": "channels_last", "dilation_rate": [1, 1], "groups": 1, "activation": "linear", "use_bias": true, "kernel_initializer": {"class_name": "GlorotUniform", "config": {"seed": null}}, "bias_initializer": {"class_name": "Zeros", "config": {}}, "kernel_regularizer": null, "bias_regularizer": null, "activity_regularizer": null, "kernel_constraint": null, "bias_constraint": null}, "name": "block35_3_conv", "inbound_nodes": [[["block35_3_mixed", 0, 0, {}]]]}, {"class_name": "Lambda", "config": {"name": "block35_3", "trainable": false, "dtype": "float32", "function": ["4wIAAAAAAAAAAgAAAAMAAABTAAAAcxQAAAB8AGQBGQB8AGQCGQB8ARQAFwBTACkDTukAAAAA6QEA\nAACpACkC2gZpbnB1dHPaBXNjYWxlcgMAAAByAwAAAPpiL3Vzci9sb2NhbC9saWIvcHl0aG9uMy42\nL2Rpc3QtcGFja2FnZXMvdGVuc29yZmxvdy9weXRob24va2VyYXMvYXBwbGljYXRpb25zL2luY2Vw\ndGlvbl9yZXNuZXRfdjIucHnaCDxsYW1iZGE+dAEAAPMAAAAA\n", null, null], "function_type": "lambda", "module": "tensorflow.python.keras.applications.inception_resnet_v2", "output_shape": [43, 52, 320], "output_shape_type": "raw", "output_shape_module": null, "arguments": {"scale": 0.17}}, "name": "block35_3", "inbound_nodes": [[["block35_2_ac", 0, 0, {}], ["block35_3_conv", 0, 0, {}]]]}, {"class_name": "Activation", "config": {"name": "block35_3_ac", "trainable": false, "dtype": "float32", "activation": "relu"}, "name": "block35_3_ac", "inbound_nodes": [[["block35_3", 0, 0, {}]]]}, {"class_name": "Conv2D", "config": {"name": "conv2d_642", "trainable": false, "dtype": "float32", "filters": 32, "kernel_size": [1, 1], "strides": [1, 1], "padding": "same", "data_format": "channels_last", "dilation_rate": [1, 1], "groups": 1, "activation": "linear", "use_bias": false, "kernel_initializer": {"class_name": "GlorotUniform", "config": {"seed": null}}, "bias_initializer": {"class_name": "Zeros", "config": {}}, "kernel_regularizer": null, "bias_regularizer": null, "activity_regularizer": null, "kernel_constraint": null, "bias_constraint": null}, "name": "conv2d_642", "inbound_nodes": [[["block35_3_ac", 0, 0, {}]]]}, {"class_name": "BatchNormalization", "config": {"name": "batch_normalization_642", "trainable": false, "dtype": "float32", "axis": [3], "momentum": 0.99, "epsilon": 0.001, "center": true, "scale": false, "beta_initializer": {"class_name": "Zeros", "config": {}}, "gamma_initializer": {"class_name": "Ones", "config": {}}, "moving_mean_initializer": {"class_name": "Zeros", "config": {}}, "moving_variance_initializer": {"class_name": "Ones", "config": {}}, "beta_regularizer": null, "gamma_regularizer": null, "beta_constraint": null, "gamma_constraint": null}, "name": "batch_normalization_642", "inbound_nodes": [[["conv2d_642", 0, 0, {}]]]}, {"class_name": "Activation", "config": {"name": "activation_642", "trainable": false, "dtype": "float32", "activation": "relu"}, "name": "activation_642", "inbound_nodes": [[["batch_normalization_642", 0, 0, {}]]]}, {"class_name": "Conv2D", "config": {"name": "conv2d_640", "trainable": false, "dtype": "float32", "filters": 32, "kernel_size": [1, 1], "strides": [1, 1], "padding": "same", "data_format": "channels_last", "dilation_rate": [1, 1], "groups": 1, "activation": "linear", "use_bias": false, "kernel_initializer": {"class_name": "GlorotUniform", "config": {"seed": null}}, "bias_initializer": {"class_name": "Zeros", "config": {}}, "kernel_regularizer": null, "bias_regularizer": null, "activity_regularizer": null, "kernel_constraint": null, "bias_constraint": null}, "name": "conv2d_640", "inbound_nodes": [[["block35_3_ac", 0, 0, {}]]]}, {"class_name": "Conv2D", "config": {"name": "conv2d_643", "trainable": false, "dtype": "float32", "filters": 48, "kernel_size": [3, 3], "strides": [1, 1], "padding": "same", "data_format": "channels_last", "dilation_rate": [1, 1], "groups": 1, "activation": "linear", "use_bias": false, "kernel_initializer": {"class_name": "GlorotUniform", "config": {"seed": null}}, "bias_initializer": {"class_name": "Zeros", "config": {}}, "kernel_regularizer": null, "bias_regularizer": null, "activity_regularizer": null, "kernel_constraint": null, "bias_constraint": null}, "name": "conv2d_643", "inbound_nodes": [[["activation_642", 0, 0, {}]]]}, {"class_name": "BatchNormalization", "config": {"name": "batch_normalization_640", "trainable": false, "dtype": "float32", "axis": [3], "momentum": 0.99, "epsilon": 0.001, "center": true, "scale": false, "beta_initializer": {"class_name": "Zeros", "config": {}}, "gamma_initializer": {"class_name": "Ones", "config": {}}, "moving_mean_initializer": {"class_name": "Zeros", "config": {}}, "moving_variance_initializer": {"class_name": "Ones", "config": {}}, "beta_regularizer": null, "gamma_regularizer": null, "beta_constraint": null, "gamma_constraint": null}, "name": "batch_normalization_640", "inbound_nodes": [[["conv2d_640", 0, 0, {}]]]}, {"class_name": "BatchNormalization", "config": {"name": "batch_normalization_643", "trainable": false, "dtype": "float32", "axis": [3], "momentum": 0.99, "epsilon": 0.001, "center": true, "scale": false, "beta_initializer": {"class_name": "Zeros", "config": {}}, "gamma_initializer": {"class_name": "Ones", "config": {}}, "moving_mean_initializer": {"class_name": "Zeros", "config": {}}, "moving_variance_initializer": {"class_name": "Ones", "config": {}}, "beta_regularizer": null, "gamma_regularizer": null, "beta_constraint": null, "gamma_constraint": null}, "name": "batch_normalization_643", "inbound_nodes": [[["conv2d_643", 0, 0, {}]]]}, {"class_name": "Activation", "config": {"name": "activation_640", "trainable": false, "dtype": "float32", "activation": "relu"}, "name": "activation_640", "inbound_nodes": [[["batch_normalization_640", 0, 0, {}]]]}, {"class_name": "Activation", "config": {"name": "activation_643", "trainable": false, "dtype": "float32", "activation": "relu"}, "name": "activation_643", "inbound_nodes": [[["batch_normalization_643", 0, 0, {}]]]}, {"class_name": "Conv2D", "config": {"name": "conv2d_639", "trainable": false, "dtype": "float32", "filters": 32, "kernel_size": [1, 1], "strides": [1, 1], "padding": "same", "data_format": "channels_last", "dilation_rate": [1, 1], "groups": 1, "activation": "linear", "use_bias": false, "kernel_initializer": {"class_name": "GlorotUniform", "config": {"seed": null}}, "bias_initializer": {"class_name": "Zeros", "config": {}}, "kernel_regularizer": null, "bias_regularizer": null, "activity_regularizer": null, "kernel_constraint": null, "bias_constraint": null}, "name": "conv2d_639", "inbound_nodes": [[["block35_3_ac", 0, 0, {}]]]}, {"class_name": "Conv2D", "config": {"name": "conv2d_641", "trainable": false, "dtype": "float32", "filters": 32, "kernel_size": [3, 3], "strides": [1, 1], "padding": "same", "data_format": "channels_last", "dilation_rate": [1, 1], "groups": 1, "activation": "linear", "use_bias": false, "kernel_initializer": {"class_name": "GlorotUniform", "config": {"seed": null}}, "bias_initializer": {"class_name": "Zeros", "config": {}}, "kernel_regularizer": null, "bias_regularizer": null, "activity_regularizer": null, "kernel_constraint": null, "bias_constraint": null}, "name": "conv2d_641", "inbound_nodes": [[["activation_640", 0, 0, {}]]]}, {"class_name": "Conv2D", "config": {"name": "conv2d_644", "trainable": false, "dtype": "float32", "filters": 64, "kernel_size": [3, 3], "strides": [1, 1], "padding": "same", "data_format": "channels_last", "dilation_rate": [1, 1], "groups": 1, "activation": "linear", "use_bias": false, "kernel_initializer": {"class_name": "GlorotUniform", "config": {"seed": null}}, "bias_initializer": {"class_name": "Zeros", "config": {}}, "kernel_regularizer": null, "bias_regularizer": null, "activity_regularizer": null, "kernel_constraint": null, "bias_constraint": null}, "name": "conv2d_644", "inbound_nodes": [[["activation_643", 0, 0, {}]]]}, {"class_name": "BatchNormalization", "config": {"name": "batch_normalization_639", "trainable": false, "dtype": "float32", "axis": [3], "momentum": 0.99, "epsilon": 0.001, "center": true, "scale": false, "beta_initializer": {"class_name": "Zeros", "config": {}}, "gamma_initializer": {"class_name": "Ones", "config": {}}, "moving_mean_initializer": {"class_name": "Zeros", "config": {}}, "moving_variance_initializer": {"class_name": "Ones", "config": {}}, "beta_regularizer": null, "gamma_regularizer": null, "beta_constraint": null, "gamma_constraint": null}, "name": "batch_normalization_639", "inbound_nodes": [[["conv2d_639", 0, 0, {}]]]}, {"class_name": "BatchNormalization", "config": {"name": "batch_normalization_641", "trainable": false, "dtype": "float32", "axis": [3], "momentum": 0.99, "epsilon": 0.001, "center": true, "scale": false, "beta_initializer": {"class_name": "Zeros", "config": {}}, "gamma_initializer": {"class_name": "Ones", "config": {}}, "moving_mean_initializer": {"class_name": "Zeros", "config": {}}, "moving_variance_initializer": {"class_name": "Ones", "config": {}}, "beta_regularizer": null, "gamma_regularizer": null, "beta_constraint": null, "gamma_constraint": null}, "name": "batch_normalization_641", "inbound_nodes": [[["conv2d_641", 0, 0, {}]]]}, {"class_name": "BatchNormalization", "config": {"name": "batch_normalization_644", "trainable": false, "dtype": "float32", "axis": [3], "momentum": 0.99, "epsilon": 0.001, "center": true, "scale": false, "beta_initializer": {"class_name": "Zeros", "config": {}}, "gamma_initializer": {"class_name": "Ones", "config": {}}, "moving_mean_initializer": {"class_name": "Zeros", "config": {}}, "moving_variance_initializer": {"class_name": "Ones", "config": {}}, "beta_regularizer": null, "gamma_regularizer": null, "beta_constraint": null, "gamma_constraint": null}, "name": "batch_normalization_644", "inbound_nodes": [[["conv2d_644", 0, 0, {}]]]}, {"class_name": "Activation", "config": {"name": "activation_639", "trainable": false, "dtype": "float32", "activation": "relu"}, "name": "activation_639", "inbound_nodes": [[["batch_normalization_639", 0, 0, {}]]]}, {"class_name": "Activation", "config": {"name": "activation_641", "trainable": false, "dtype": "float32", "activation": "relu"}, "name": "activation_641", "inbound_nodes": [[["batch_normalization_641", 0, 0, {}]]]}, {"class_name": "Activation", "config": {"name": "activation_644", "trainable": false, "dtype": "float32", "activation": "relu"}, "name": "activation_644", "inbound_nodes": [[["batch_normalization_644", 0, 0, {}]]]}, {"class_name": "Concatenate", "config": {"name": "block35_4_mixed", "trainable": false, "dtype": "float32", "axis": 3}, "name": "block35_4_mixed", "inbound_nodes": [[["activation_639", 0, 0, {}], ["activation_641", 0, 0, {}], ["activation_644", 0, 0, {}]]]}, {"class_name": "Conv2D", "config": {"name": "block35_4_conv", "trainable": false, "dtype": "float32", "filters": 320, "kernel_size": [1, 1], "strides": [1, 1], "padding": "same", "data_format": "channels_last", "dilation_rate": [1, 1], "groups": 1, "activation": "linear", "use_bias": true, "kernel_initializer": {"class_name": "GlorotUniform", "config": {"seed": null}}, "bias_initializer": {"class_name": "Zeros", "config": {}}, "kernel_regularizer": null, "bias_regularizer": null, "activity_regularizer": null, "kernel_constraint": null, "bias_constraint": null}, "name": "block35_4_conv", "inbound_nodes": [[["block35_4_mixed", 0, 0, {}]]]}, {"class_name": "Lambda", "config": {"name": "block35_4", "trainable": false, "dtype": "float32", "function": ["4wIAAAAAAAAAAgAAAAMAAABTAAAAcxQAAAB8AGQBGQB8AGQCGQB8ARQAFwBTACkDTukAAAAA6QEA\nAACpACkC2gZpbnB1dHPaBXNjYWxlcgMAAAByAwAAAPpiL3Vzci9sb2NhbC9saWIvcHl0aG9uMy42\nL2Rpc3QtcGFja2FnZXMvdGVuc29yZmxvdy9weXRob24va2VyYXMvYXBwbGljYXRpb25zL2luY2Vw\ndGlvbl9yZXNuZXRfdjIucHnaCDxsYW1iZGE+dAEAAPMAAAAA\n", null, null], "function_type": "lambda", "module": "tensorflow.python.keras.applications.inception_resnet_v2", "output_shape": [43, 52, 320], "output_shape_type": "raw", "output_shape_module": null, "arguments": {"scale": 0.17}}, "name": "block35_4", "inbound_nodes": [[["block35_3_ac", 0, 0, {}], ["block35_4_conv", 0, 0, {}]]]}, {"class_name": "Activation", "config": {"name": "block35_4_ac", "trainable": false, "dtype": "float32", "activation": "relu"}, "name": "block35_4_ac", "inbound_nodes": [[["block35_4", 0, 0, {}]]]}, {"class_name": "Conv2D", "config": {"name": "conv2d_648", "trainable": false, "dtype": "float32", "filters": 32, "kernel_size": [1, 1], "strides": [1, 1], "padding": "same", "data_format": "channels_last", "dilation_rate": [1, 1], "groups": 1, "activation": "linear", "use_bias": false, "kernel_initializer": {"class_name": "GlorotUniform", "config": {"seed": null}}, "bias_initializer": {"class_name": "Zeros", "config": {}}, "kernel_regularizer": null, "bias_regularizer": null, "activity_regularizer": null, "kernel_constraint": null, "bias_constraint": null}, "name": "conv2d_648", "inbound_nodes": [[["block35_4_ac", 0, 0, {}]]]}, {"class_name": "BatchNormalization", "config": {"name": "batch_normalization_648", "trainable": false, "dtype": "float32", "axis": [3], "momentum": 0.99, "epsilon": 0.001, "center": true, "scale": false, "beta_initializer": {"class_name": "Zeros", "config": {}}, "gamma_initializer": {"class_name": "Ones", "config": {}}, "moving_mean_initializer": {"class_name": "Zeros", "config": {}}, "moving_variance_initializer": {"class_name": "Ones", "config": {}}, "beta_regularizer": null, "gamma_regularizer": null, "beta_constraint": null, "gamma_constraint": null}, "name": "batch_normalization_648", "inbound_nodes": [[["conv2d_648", 0, 0, {}]]]}, {"class_name": "Activation", "config": {"name": "activation_648", "trainable": false, "dtype": "float32", "activation": "relu"}, "name": "activation_648", "inbound_nodes": [[["batch_normalization_648", 0, 0, {}]]]}, {"class_name": "Conv2D", "config": {"name": "conv2d_646", "trainable": false, "dtype": "float32", "filters": 32, "kernel_size": [1, 1], "strides": [1, 1], "padding": "same", "data_format": "channels_last", "dilation_rate": [1, 1], "groups": 1, "activation": "linear", "use_bias": false, "kernel_initializer": {"class_name": "GlorotUniform", "config": {"seed": null}}, "bias_initializer": {"class_name": "Zeros", "config": {}}, "kernel_regularizer": null, "bias_regularizer": null, "activity_regularizer": null, "kernel_constraint": null, "bias_constraint": null}, "name": "conv2d_646", "inbound_nodes": [[["block35_4_ac", 0, 0, {}]]]}, {"class_name": "Conv2D", "config": {"name": "conv2d_649", "trainable": false, "dtype": "float32", "filters": 48, "kernel_size": [3, 3], "strides": [1, 1], "padding": "same", "data_format": "channels_last", "dilation_rate": [1, 1], "groups": 1, "activation": "linear", "use_bias": false, "kernel_initializer": {"class_name": "GlorotUniform", "config": {"seed": null}}, "bias_initializer": {"class_name": "Zeros", "config": {}}, "kernel_regularizer": null, "bias_regularizer": null, "activity_regularizer": null, "kernel_constraint": null, "bias_constraint": null}, "name": "conv2d_649", "inbound_nodes": [[["activation_648", 0, 0, {}]]]}, {"class_name": "BatchNormalization", "config": {"name": "batch_normalization_646", "trainable": false, "dtype": "float32", "axis": [3], "momentum": 0.99, "epsilon": 0.001, "center": true, "scale": false, "beta_initializer": {"class_name": "Zeros", "config": {}}, "gamma_initializer": {"class_name": "Ones", "config": {}}, "moving_mean_initializer": {"class_name": "Zeros", "config": {}}, "moving_variance_initializer": {"class_name": "Ones", "config": {}}, "beta_regularizer": null, "gamma_regularizer": null, "beta_constraint": null, "gamma_constraint": null}, "name": "batch_normalization_646", "inbound_nodes": [[["conv2d_646", 0, 0, {}]]]}, {"class_name": "BatchNormalization", "config": {"name": "batch_normalization_649", "trainable": false, "dtype": "float32", "axis": [3], "momentum": 0.99, "epsilon": 0.001, "center": true, "scale": false, "beta_initializer": {"class_name": "Zeros", "config": {}}, "gamma_initializer": {"class_name": "Ones", "config": {}}, "moving_mean_initializer": {"class_name": "Zeros", "config": {}}, "moving_variance_initializer": {"class_name": "Ones", "config": {}}, "beta_regularizer": null, "gamma_regularizer": null, "beta_constraint": null, "gamma_constraint": null}, "name": "batch_normalization_649", "inbound_nodes": [[["conv2d_649", 0, 0, {}]]]}, {"class_name": "Activation", "config": {"name": "activation_646", "trainable": false, "dtype": "float32", "activation": "relu"}, "name": "activation_646", "inbound_nodes": [[["batch_normalization_646", 0, 0, {}]]]}, {"class_name": "Activation", "config": {"name": "activation_649", "trainable": false, "dtype": "float32", "activation": "relu"}, "name": "activation_649", "inbound_nodes": [[["batch_normalization_649", 0, 0, {}]]]}, {"class_name": "Conv2D", "config": {"name": "conv2d_645", "trainable": false, "dtype": "float32", "filters": 32, "kernel_size": [1, 1], "strides": [1, 1], "padding": "same", "data_format": "channels_last", "dilation_rate": [1, 1], "groups": 1, "activation": "linear", "use_bias": false, "kernel_initializer": {"class_name": "GlorotUniform", "config": {"seed": null}}, "bias_initializer": {"class_name": "Zeros", "config": {}}, "kernel_regularizer": null, "bias_regularizer": null, "activity_regularizer": null, "kernel_constraint": null, "bias_constraint": null}, "name": "conv2d_645", "inbound_nodes": [[["block35_4_ac", 0, 0, {}]]]}, {"class_name": "Conv2D", "config": {"name": "conv2d_647", "trainable": false, "dtype": "float32", "filters": 32, "kernel_size": [3, 3], "strides": [1, 1], "padding": "same", "data_format": "channels_last", "dilation_rate": [1, 1], "groups": 1, "activation": "linear", "use_bias": false, "kernel_initializer": {"class_name": "GlorotUniform", "config": {"seed": null}}, "bias_initializer": {"class_name": "Zeros", "config": {}}, "kernel_regularizer": null, "bias_regularizer": null, "activity_regularizer": null, "kernel_constraint": null, "bias_constraint": null}, "name": "conv2d_647", "inbound_nodes": [[["activation_646", 0, 0, {}]]]}, {"class_name": "Conv2D", "config": {"name": "conv2d_650", "trainable": false, "dtype": "float32", "filters": 64, "kernel_size": [3, 3], "strides": [1, 1], "padding": "same", "data_format": "channels_last", "dilation_rate": [1, 1], "groups": 1, "activation": "linear", "use_bias": false, "kernel_initializer": {"class_name": "GlorotUniform", "config": {"seed": null}}, "bias_initializer": {"class_name": "Zeros", "config": {}}, "kernel_regularizer": null, "bias_regularizer": null, "activity_regularizer": null, "kernel_constraint": null, "bias_constraint": null}, "name": "conv2d_650", "inbound_nodes": [[["activation_649", 0, 0, {}]]]}, {"class_name": "BatchNormalization", "config": {"name": "batch_normalization_645", "trainable": false, "dtype": "float32", "axis": [3], "momentum": 0.99, "epsilon": 0.001, "center": true, "scale": false, "beta_initializer": {"class_name": "Zeros", "config": {}}, "gamma_initializer": {"class_name": "Ones", "config": {}}, "moving_mean_initializer": {"class_name": "Zeros", "config": {}}, "moving_variance_initializer": {"class_name": "Ones", "config": {}}, "beta_regularizer": null, "gamma_regularizer": null, "beta_constraint": null, "gamma_constraint": null}, "name": "batch_normalization_645", "inbound_nodes": [[["conv2d_645", 0, 0, {}]]]}, {"class_name": "BatchNormalization", "config": {"name": "batch_normalization_647", "trainable": false, "dtype": "float32", "axis": [3], "momentum": 0.99, "epsilon": 0.001, "center": true, "scale": false, "beta_initializer": {"class_name": "Zeros", "config": {}}, "gamma_initializer": {"class_name": "Ones", "config": {}}, "moving_mean_initializer": {"class_name": "Zeros", "config": {}}, "moving_variance_initializer": {"class_name": "Ones", "config": {}}, "beta_regularizer": null, "gamma_regularizer": null, "beta_constraint": null, "gamma_constraint": null}, "name": "batch_normalization_647", "inbound_nodes": [[["conv2d_647", 0, 0, {}]]]}, {"class_name": "BatchNormalization", "config": {"name": "batch_normalization_650", "trainable": false, "dtype": "float32", "axis": [3], "momentum": 0.99, "epsilon": 0.001, "center": true, "scale": false, "beta_initializer": {"class_name": "Zeros", "config": {}}, "gamma_initializer": {"class_name": "Ones", "config": {}}, "moving_mean_initializer": {"class_name": "Zeros", "config": {}}, "moving_variance_initializer": {"class_name": "Ones", "config": {}}, "beta_regularizer": null, "gamma_regularizer": null, "beta_constraint": null, "gamma_constraint": null}, "name": "batch_normalization_650", "inbound_nodes": [[["conv2d_650", 0, 0, {}]]]}, {"class_name": "Activation", "config": {"name": "activation_645", "trainable": false, "dtype": "float32", "activation": "relu"}, "name": "activation_645", "inbound_nodes": [[["batch_normalization_645", 0, 0, {}]]]}, {"class_name": "Activation", "config": {"name": "activation_647", "trainable": false, "dtype": "float32", "activation": "relu"}, "name": "activation_647", "inbound_nodes": [[["batch_normalization_647", 0, 0, {}]]]}, {"class_name": "Activation", "config": {"name": "activation_650", "trainable": false, "dtype": "float32", "activation": "relu"}, "name": "activation_650", "inbound_nodes": [[["batch_normalization_650", 0, 0, {}]]]}, {"class_name": "Concatenate", "config": {"name": "block35_5_mixed", "trainable": false, "dtype": "float32", "axis": 3}, "name": "block35_5_mixed", "inbound_nodes": [[["activation_645", 0, 0, {}], ["activation_647", 0, 0, {}], ["activation_650", 0, 0, {}]]]}, {"class_name": "Conv2D", "config": {"name": "block35_5_conv", "trainable": false, "dtype": "float32", "filters": 320, "kernel_size": [1, 1], "strides": [1, 1], "padding": "same", "data_format": "channels_last", "dilation_rate": [1, 1], "groups": 1, "activation": "linear", "use_bias": true, "kernel_initializer": {"class_name": "GlorotUniform", "config": {"seed": null}}, "bias_initializer": {"class_name": "Zeros", "config": {}}, "kernel_regularizer": null, "bias_regularizer": null, "activity_regularizer": null, "kernel_constraint": null, "bias_constraint": null}, "name": "block35_5_conv", "inbound_nodes": [[["block35_5_mixed", 0, 0, {}]]]}, {"class_name": "Lambda", "config": {"name": "block35_5", "trainable": false, "dtype": "float32", "function": ["4wIAAAAAAAAAAgAAAAMAAABTAAAAcxQAAAB8AGQBGQB8AGQCGQB8ARQAFwBTACkDTukAAAAA6QEA\nAACpACkC2gZpbnB1dHPaBXNjYWxlcgMAAAByAwAAAPpiL3Vzci9sb2NhbC9saWIvcHl0aG9uMy42\nL2Rpc3QtcGFja2FnZXMvdGVuc29yZmxvdy9weXRob24va2VyYXMvYXBwbGljYXRpb25zL2luY2Vw\ndGlvbl9yZXNuZXRfdjIucHnaCDxsYW1iZGE+dAEAAPMAAAAA\n", null, null], "function_type": "lambda", "module": "tensorflow.python.keras.applications.inception_resnet_v2", "output_shape": [43, 52, 320], "output_shape_type": "raw", "output_shape_module": null, "arguments": {"scale": 0.17}}, "name": "block35_5", "inbound_nodes": [[["block35_4_ac", 0, 0, {}], ["block35_5_conv", 0, 0, {}]]]}, {"class_name": "Activation", "config": {"name": "block35_5_ac", "trainable": false, "dtype": "float32", "activation": "relu"}, "name": "block35_5_ac", "inbound_nodes": [[["block35_5", 0, 0, {}]]]}, {"class_name": "Conv2D", "config": {"name": "conv2d_654", "trainable": false, "dtype": "float32", "filters": 32, "kernel_size": [1, 1], "strides": [1, 1], "padding": "same", "data_format": "channels_last", "dilation_rate": [1, 1], "groups": 1, "activation": "linear", "use_bias": false, "kernel_initializer": {"class_name": "GlorotUniform", "config": {"seed": null}}, "bias_initializer": {"class_name": "Zeros", "config": {}}, "kernel_regularizer": null, "bias_regularizer": null, "activity_regularizer": null, "kernel_constraint": null, "bias_constraint": null}, "name": "conv2d_654", "inbound_nodes": [[["block35_5_ac", 0, 0, {}]]]}, {"class_name": "BatchNormalization", "config": {"name": "batch_normalization_654", "trainable": false, "dtype": "float32", "axis": [3], "momentum": 0.99, "epsilon": 0.001, "center": true, "scale": false, "beta_initializer": {"class_name": "Zeros", "config": {}}, "gamma_initializer": {"class_name": "Ones", "config": {}}, "moving_mean_initializer": {"class_name": "Zeros", "config": {}}, "moving_variance_initializer": {"class_name": "Ones", "config": {}}, "beta_regularizer": null, "gamma_regularizer": null, "beta_constraint": null, "gamma_constraint": null}, "name": "batch_normalization_654", "inbound_nodes": [[["conv2d_654", 0, 0, {}]]]}, {"class_name": "Activation", "config": {"name": "activation_654", "trainable": false, "dtype": "float32", "activation": "relu"}, "name": "activation_654", "inbound_nodes": [[["batch_normalization_654", 0, 0, {}]]]}, {"class_name": "Conv2D", "config": {"name": "conv2d_652", "trainable": false, "dtype": "float32", "filters": 32, "kernel_size": [1, 1], "strides": [1, 1], "padding": "same", "data_format": "channels_last", "dilation_rate": [1, 1], "groups": 1, "activation": "linear", "use_bias": false, "kernel_initializer": {"class_name": "GlorotUniform", "config": {"seed": null}}, "bias_initializer": {"class_name": "Zeros", "config": {}}, "kernel_regularizer": null, "bias_regularizer": null, "activity_regularizer": null, "kernel_constraint": null, "bias_constraint": null}, "name": "conv2d_652", "inbound_nodes": [[["block35_5_ac", 0, 0, {}]]]}, {"class_name": "Conv2D", "config": {"name": "conv2d_655", "trainable": false, "dtype": "float32", "filters": 48, "kernel_size": [3, 3], "strides": [1, 1], "padding": "same", "data_format": "channels_last", "dilation_rate": [1, 1], "groups": 1, "activation": "linear", "use_bias": false, "kernel_initializer": {"class_name": "GlorotUniform", "config": {"seed": null}}, "bias_initializer": {"class_name": "Zeros", "config": {}}, "kernel_regularizer": null, "bias_regularizer": null, "activity_regularizer": null, "kernel_constraint": null, "bias_constraint": null}, "name": "conv2d_655", "inbound_nodes": [[["activation_654", 0, 0, {}]]]}, {"class_name": "BatchNormalization", "config": {"name": "batch_normalization_652", "trainable": false, "dtype": "float32", "axis": [3], "momentum": 0.99, "epsilon": 0.001, "center": true, "scale": false, "beta_initializer": {"class_name": "Zeros", "config": {}}, "gamma_initializer": {"class_name": "Ones", "config": {}}, "moving_mean_initializer": {"class_name": "Zeros", "config": {}}, "moving_variance_initializer": {"class_name": "Ones", "config": {}}, "beta_regularizer": null, "gamma_regularizer": null, "beta_constraint": null, "gamma_constraint": null}, "name": "batch_normalization_652", "inbound_nodes": [[["conv2d_652", 0, 0, {}]]]}, {"class_name": "BatchNormalization", "config": {"name": "batch_normalization_655", "trainable": false, "dtype": "float32", "axis": [3], "momentum": 0.99, "epsilon": 0.001, "center": true, "scale": false, "beta_initializer": {"class_name": "Zeros", "config": {}}, "gamma_initializer": {"class_name": "Ones", "config": {}}, "moving_mean_initializer": {"class_name": "Zeros", "config": {}}, "moving_variance_initializer": {"class_name": "Ones", "config": {}}, "beta_regularizer": null, "gamma_regularizer": null, "beta_constraint": null, "gamma_constraint": null}, "name": "batch_normalization_655", "inbound_nodes": [[["conv2d_655", 0, 0, {}]]]}, {"class_name": "Activation", "config": {"name": "activation_652", "trainable": false, "dtype": "float32", "activation": "relu"}, "name": "activation_652", "inbound_nodes": [[["batch_normalization_652", 0, 0, {}]]]}, {"class_name": "Activation", "config": {"name": "activation_655", "trainable": false, "dtype": "float32", "activation": "relu"}, "name": "activation_655", "inbound_nodes": [[["batch_normalization_655", 0, 0, {}]]]}, {"class_name": "Conv2D", "config": {"name": "conv2d_651", "trainable": false, "dtype": "float32", "filters": 32, "kernel_size": [1, 1], "strides": [1, 1], "padding": "same", "data_format": "channels_last", "dilation_rate": [1, 1], "groups": 1, "activation": "linear", "use_bias": false, "kernel_initializer": {"class_name": "GlorotUniform", "config": {"seed": null}}, "bias_initializer": {"class_name": "Zeros", "config": {}}, "kernel_regularizer": null, "bias_regularizer": null, "activity_regularizer": null, "kernel_constraint": null, "bias_constraint": null}, "name": "conv2d_651", "inbound_nodes": [[["block35_5_ac", 0, 0, {}]]]}, {"class_name": "Conv2D", "config": {"name": "conv2d_653", "trainable": false, "dtype": "float32", "filters": 32, "kernel_size": [3, 3], "strides": [1, 1], "padding": "same", "data_format": "channels_last", "dilation_rate": [1, 1], "groups": 1, "activation": "linear", "use_bias": false, "kernel_initializer": {"class_name": "GlorotUniform", "config": {"seed": null}}, "bias_initializer": {"class_name": "Zeros", "config": {}}, "kernel_regularizer": null, "bias_regularizer": null, "activity_regularizer": null, "kernel_constraint": null, "bias_constraint": null}, "name": "conv2d_653", "inbound_nodes": [[["activation_652", 0, 0, {}]]]}, {"class_name": "Conv2D", "config": {"name": "conv2d_656", "trainable": false, "dtype": "float32", "filters": 64, "kernel_size": [3, 3], "strides": [1, 1], "padding": "same", "data_format": "channels_last", "dilation_rate": [1, 1], "groups": 1, "activation": "linear", "use_bias": false, "kernel_initializer": {"class_name": "GlorotUniform", "config": {"seed": null}}, "bias_initializer": {"class_name": "Zeros", "config": {}}, "kernel_regularizer": null, "bias_regularizer": null, "activity_regularizer": null, "kernel_constraint": null, "bias_constraint": null}, "name": "conv2d_656", "inbound_nodes": [[["activation_655", 0, 0, {}]]]}, {"class_name": "BatchNormalization", "config": {"name": "batch_normalization_651", "trainable": false, "dtype": "float32", "axis": [3], "momentum": 0.99, "epsilon": 0.001, "center": true, "scale": false, "beta_initializer": {"class_name": "Zeros", "config": {}}, "gamma_initializer": {"class_name": "Ones", "config": {}}, "moving_mean_initializer": {"class_name": "Zeros", "config": {}}, "moving_variance_initializer": {"class_name": "Ones", "config": {}}, "beta_regularizer": null, "gamma_regularizer": null, "beta_constraint": null, "gamma_constraint": null}, "name": "batch_normalization_651", "inbound_nodes": [[["conv2d_651", 0, 0, {}]]]}, {"class_name": "BatchNormalization", "config": {"name": "batch_normalization_653", "trainable": false, "dtype": "float32", "axis": [3], "momentum": 0.99, "epsilon": 0.001, "center": true, "scale": false, "beta_initializer": {"class_name": "Zeros", "config": {}}, "gamma_initializer": {"class_name": "Ones", "config": {}}, "moving_mean_initializer": {"class_name": "Zeros", "config": {}}, "moving_variance_initializer": {"class_name": "Ones", "config": {}}, "beta_regularizer": null, "gamma_regularizer": null, "beta_constraint": null, "gamma_constraint": null}, "name": "batch_normalization_653", "inbound_nodes": [[["conv2d_653", 0, 0, {}]]]}, {"class_name": "BatchNormalization", "config": {"name": "batch_normalization_656", "trainable": false, "dtype": "float32", "axis": [3], "momentum": 0.99, "epsilon": 0.001, "center": true, "scale": false, "beta_initializer": {"class_name": "Zeros", "config": {}}, "gamma_initializer": {"class_name": "Ones", "config": {}}, "moving_mean_initializer": {"class_name": "Zeros", "config": {}}, "moving_variance_initializer": {"class_name": "Ones", "config": {}}, "beta_regularizer": null, "gamma_regularizer": null, "beta_constraint": null, "gamma_constraint": null}, "name": "batch_normalization_656", "inbound_nodes": [[["conv2d_656", 0, 0, {}]]]}, {"class_name": "Activation", "config": {"name": "activation_651", "trainable": false, "dtype": "float32", "activation": "relu"}, "name": "activation_651", "inbound_nodes": [[["batch_normalization_651", 0, 0, {}]]]}, {"class_name": "Activation", "config": {"name": "activation_653", "trainable": false, "dtype": "float32", "activation": "relu"}, "name": "activation_653", "inbound_nodes": [[["batch_normalization_653", 0, 0, {}]]]}, {"class_name": "Activation", "config": {"name": "activation_656", "trainable": false, "dtype": "float32", "activation": "relu"}, "name": "activation_656", "inbound_nodes": [[["batch_normalization_656", 0, 0, {}]]]}, {"class_name": "Concatenate", "config": {"name": "block35_6_mixed", "trainable": false, "dtype": "float32", "axis": 3}, "name": "block35_6_mixed", "inbound_nodes": [[["activation_651", 0, 0, {}], ["activation_653", 0, 0, {}], ["activation_656", 0, 0, {}]]]}, {"class_name": "Conv2D", "config": {"name": "block35_6_conv", "trainable": false, "dtype": "float32", "filters": 320, "kernel_size": [1, 1], "strides": [1, 1], "padding": "same", "data_format": "channels_last", "dilation_rate": [1, 1], "groups": 1, "activation": "linear", "use_bias": true, "kernel_initializer": {"class_name": "GlorotUniform", "config": {"seed": null}}, "bias_initializer": {"class_name": "Zeros", "config": {}}, "kernel_regularizer": null, "bias_regularizer": null, "activity_regularizer": null, "kernel_constraint": null, "bias_constraint": null}, "name": "block35_6_conv", "inbound_nodes": [[["block35_6_mixed", 0, 0, {}]]]}, {"class_name": "Lambda", "config": {"name": "block35_6", "trainable": false, "dtype": "float32", "function": ["4wIAAAAAAAAAAgAAAAMAAABTAAAAcxQAAAB8AGQBGQB8AGQCGQB8ARQAFwBTACkDTukAAAAA6QEA\nAACpACkC2gZpbnB1dHPaBXNjYWxlcgMAAAByAwAAAPpiL3Vzci9sb2NhbC9saWIvcHl0aG9uMy42\nL2Rpc3QtcGFja2FnZXMvdGVuc29yZmxvdy9weXRob24va2VyYXMvYXBwbGljYXRpb25zL2luY2Vw\ndGlvbl9yZXNuZXRfdjIucHnaCDxsYW1iZGE+dAEAAPMAAAAA\n", null, null], "function_type": "lambda", "module": "tensorflow.python.keras.applications.inception_resnet_v2", "output_shape": [43, 52, 320], "output_shape_type": "raw", "output_shape_module": null, "arguments": {"scale": 0.17}}, "name": "block35_6", "inbound_nodes": [[["block35_5_ac", 0, 0, {}], ["block35_6_conv", 0, 0, {}]]]}, {"class_name": "Activation", "config": {"name": "block35_6_ac", "trainable": false, "dtype": "float32", "activation": "relu"}, "name": "block35_6_ac", "inbound_nodes": [[["block35_6", 0, 0, {}]]]}, {"class_name": "Conv2D", "config": {"name": "conv2d_660", "trainable": false, "dtype": "float32", "filters": 32, "kernel_size": [1, 1], "strides": [1, 1], "padding": "same", "data_format": "channels_last", "dilation_rate": [1, 1], "groups": 1, "activation": "linear", "use_bias": false, "kernel_initializer": {"class_name": "GlorotUniform", "config": {"seed": null}}, "bias_initializer": {"class_name": "Zeros", "config": {}}, "kernel_regularizer": null, "bias_regularizer": null, "activity_regularizer": null, "kernel_constraint": null, "bias_constraint": null}, "name": "conv2d_660", "inbound_nodes": [[["block35_6_ac", 0, 0, {}]]]}, {"class_name": "BatchNormalization", "config": {"name": "batch_normalization_660", "trainable": false, "dtype": "float32", "axis": [3], "momentum": 0.99, "epsilon": 0.001, "center": true, "scale": false, "beta_initializer": {"class_name": "Zeros", "config": {}}, "gamma_initializer": {"class_name": "Ones", "config": {}}, "moving_mean_initializer": {"class_name": "Zeros", "config": {}}, "moving_variance_initializer": {"class_name": "Ones", "config": {}}, "beta_regularizer": null, "gamma_regularizer": null, "beta_constraint": null, "gamma_constraint": null}, "name": "batch_normalization_660", "inbound_nodes": [[["conv2d_660", 0, 0, {}]]]}, {"class_name": "Activation", "config": {"name": "activation_660", "trainable": false, "dtype": "float32", "activation": "relu"}, "name": "activation_660", "inbound_nodes": [[["batch_normalization_660", 0, 0, {}]]]}, {"class_name": "Conv2D", "config": {"name": "conv2d_658", "trainable": false, "dtype": "float32", "filters": 32, "kernel_size": [1, 1], "strides": [1, 1], "padding": "same", "data_format": "channels_last", "dilation_rate": [1, 1], "groups": 1, "activation": "linear", "use_bias": false, "kernel_initializer": {"class_name": "GlorotUniform", "config": {"seed": null}}, "bias_initializer": {"class_name": "Zeros", "config": {}}, "kernel_regularizer": null, "bias_regularizer": null, "activity_regularizer": null, "kernel_constraint": null, "bias_constraint": null}, "name": "conv2d_658", "inbound_nodes": [[["block35_6_ac", 0, 0, {}]]]}, {"class_name": "Conv2D", "config": {"name": "conv2d_661", "trainable": false, "dtype": "float32", "filters": 48, "kernel_size": [3, 3], "strides": [1, 1], "padding": "same", "data_format": "channels_last", "dilation_rate": [1, 1], "groups": 1, "activation": "linear", "use_bias": false, "kernel_initializer": {"class_name": "GlorotUniform", "config": {"seed": null}}, "bias_initializer": {"class_name": "Zeros", "config": {}}, "kernel_regularizer": null, "bias_regularizer": null, "activity_regularizer": null, "kernel_constraint": null, "bias_constraint": null}, "name": "conv2d_661", "inbound_nodes": [[["activation_660", 0, 0, {}]]]}, {"class_name": "BatchNormalization", "config": {"name": "batch_normalization_658", "trainable": false, "dtype": "float32", "axis": [3], "momentum": 0.99, "epsilon": 0.001, "center": true, "scale": false, "beta_initializer": {"class_name": "Zeros", "config": {}}, "gamma_initializer": {"class_name": "Ones", "config": {}}, "moving_mean_initializer": {"class_name": "Zeros", "config": {}}, "moving_variance_initializer": {"class_name": "Ones", "config": {}}, "beta_regularizer": null, "gamma_regularizer": null, "beta_constraint": null, "gamma_constraint": null}, "name": "batch_normalization_658", "inbound_nodes": [[["conv2d_658", 0, 0, {}]]]}, {"class_name": "BatchNormalization", "config": {"name": "batch_normalization_661", "trainable": false, "dtype": "float32", "axis": [3], "momentum": 0.99, "epsilon": 0.001, "center": true, "scale": false, "beta_initializer": {"class_name": "Zeros", "config": {}}, "gamma_initializer": {"class_name": "Ones", "config": {}}, "moving_mean_initializer": {"class_name": "Zeros", "config": {}}, "moving_variance_initializer": {"class_name": "Ones", "config": {}}, "beta_regularizer": null, "gamma_regularizer": null, "beta_constraint": null, "gamma_constraint": null}, "name": "batch_normalization_661", "inbound_nodes": [[["conv2d_661", 0, 0, {}]]]}, {"class_name": "Activation", "config": {"name": "activation_658", "trainable": false, "dtype": "float32", "activation": "relu"}, "name": "activation_658", "inbound_nodes": [[["batch_normalization_658", 0, 0, {}]]]}, {"class_name": "Activation", "config": {"name": "activation_661", "trainable": false, "dtype": "float32", "activation": "relu"}, "name": "activation_661", "inbound_nodes": [[["batch_normalization_661", 0, 0, {}]]]}, {"class_name": "Conv2D", "config": {"name": "conv2d_657", "trainable": false, "dtype": "float32", "filters": 32, "kernel_size": [1, 1], "strides": [1, 1], "padding": "same", "data_format": "channels_last", "dilation_rate": [1, 1], "groups": 1, "activation": "linear", "use_bias": false, "kernel_initializer": {"class_name": "GlorotUniform", "config": {"seed": null}}, "bias_initializer": {"class_name": "Zeros", "config": {}}, "kernel_regularizer": null, "bias_regularizer": null, "activity_regularizer": null, "kernel_constraint": null, "bias_constraint": null}, "name": "conv2d_657", "inbound_nodes": [[["block35_6_ac", 0, 0, {}]]]}, {"class_name": "Conv2D", "config": {"name": "conv2d_659", "trainable": false, "dtype": "float32", "filters": 32, "kernel_size": [3, 3], "strides": [1, 1], "padding": "same", "data_format": "channels_last", "dilation_rate": [1, 1], "groups": 1, "activation": "linear", "use_bias": false, "kernel_initializer": {"class_name": "GlorotUniform", "config": {"seed": null}}, "bias_initializer": {"class_name": "Zeros", "config": {}}, "kernel_regularizer": null, "bias_regularizer": null, "activity_regularizer": null, "kernel_constraint": null, "bias_constraint": null}, "name": "conv2d_659", "inbound_nodes": [[["activation_658", 0, 0, {}]]]}, {"class_name": "Conv2D", "config": {"name": "conv2d_662", "trainable": false, "dtype": "float32", "filters": 64, "kernel_size": [3, 3], "strides": [1, 1], "padding": "same", "data_format": "channels_last", "dilation_rate": [1, 1], "groups": 1, "activation": "linear", "use_bias": false, "kernel_initializer": {"class_name": "GlorotUniform", "config": {"seed": null}}, "bias_initializer": {"class_name": "Zeros", "config": {}}, "kernel_regularizer": null, "bias_regularizer": null, "activity_regularizer": null, "kernel_constraint": null, "bias_constraint": null}, "name": "conv2d_662", "inbound_nodes": [[["activation_661", 0, 0, {}]]]}, {"class_name": "BatchNormalization", "config": {"name": "batch_normalization_657", "trainable": false, "dtype": "float32", "axis": [3], "momentum": 0.99, "epsilon": 0.001, "center": true, "scale": false, "beta_initializer": {"class_name": "Zeros", "config": {}}, "gamma_initializer": {"class_name": "Ones", "config": {}}, "moving_mean_initializer": {"class_name": "Zeros", "config": {}}, "moving_variance_initializer": {"class_name": "Ones", "config": {}}, "beta_regularizer": null, "gamma_regularizer": null, "beta_constraint": null, "gamma_constraint": null}, "name": "batch_normalization_657", "inbound_nodes": [[["conv2d_657", 0, 0, {}]]]}, {"class_name": "BatchNormalization", "config": {"name": "batch_normalization_659", "trainable": false, "dtype": "float32", "axis": [3], "momentum": 0.99, "epsilon": 0.001, "center": true, "scale": false, "beta_initializer": {"class_name": "Zeros", "config": {}}, "gamma_initializer": {"class_name": "Ones", "config": {}}, "moving_mean_initializer": {"class_name": "Zeros", "config": {}}, "moving_variance_initializer": {"class_name": "Ones", "config": {}}, "beta_regularizer": null, "gamma_regularizer": null, "beta_constraint": null, "gamma_constraint": null}, "name": "batch_normalization_659", "inbound_nodes": [[["conv2d_659", 0, 0, {}]]]}, {"class_name": "BatchNormalization", "config": {"name": "batch_normalization_662", "trainable": false, "dtype": "float32", "axis": [3], "momentum": 0.99, "epsilon": 0.001, "center": true, "scale": false, "beta_initializer": {"class_name": "Zeros", "config": {}}, "gamma_initializer": {"class_name": "Ones", "config": {}}, "moving_mean_initializer": {"class_name": "Zeros", "config": {}}, "moving_variance_initializer": {"class_name": "Ones", "config": {}}, "beta_regularizer": null, "gamma_regularizer": null, "beta_constraint": null, "gamma_constraint": null}, "name": "batch_normalization_662", "inbound_nodes": [[["conv2d_662", 0, 0, {}]]]}, {"class_name": "Activation", "config": {"name": "activation_657", "trainable": false, "dtype": "float32", "activation": "relu"}, "name": "activation_657", "inbound_nodes": [[["batch_normalization_657", 0, 0, {}]]]}, {"class_name": "Activation", "config": {"name": "activation_659", "trainable": false, "dtype": "float32", "activation": "relu"}, "name": "activation_659", "inbound_nodes": [[["batch_normalization_659", 0, 0, {}]]]}, {"class_name": "Activation", "config": {"name": "activation_662", "trainable": false, "dtype": "float32", "activation": "relu"}, "name": "activation_662", "inbound_nodes": [[["batch_normalization_662", 0, 0, {}]]]}, {"class_name": "Concatenate", "config": {"name": "block35_7_mixed", "trainable": false, "dtype": "float32", "axis": 3}, "name": "block35_7_mixed", "inbound_nodes": [[["activation_657", 0, 0, {}], ["activation_659", 0, 0, {}], ["activation_662", 0, 0, {}]]]}, {"class_name": "Conv2D", "config": {"name": "block35_7_conv", "trainable": false, "dtype": "float32", "filters": 320, "kernel_size": [1, 1], "strides": [1, 1], "padding": "same", "data_format": "channels_last", "dilation_rate": [1, 1], "groups": 1, "activation": "linear", "use_bias": true, "kernel_initializer": {"class_name": "GlorotUniform", "config": {"seed": null}}, "bias_initializer": {"class_name": "Zeros", "config": {}}, "kernel_regularizer": null, "bias_regularizer": null, "activity_regularizer": null, "kernel_constraint": null, "bias_constraint": null}, "name": "block35_7_conv", "inbound_nodes": [[["block35_7_mixed", 0, 0, {}]]]}, {"class_name": "Lambda", "config": {"name": "block35_7", "trainable": false, "dtype": "float32", "function": ["4wIAAAAAAAAAAgAAAAMAAABTAAAAcxQAAAB8AGQBGQB8AGQCGQB8ARQAFwBTACkDTukAAAAA6QEA\nAACpACkC2gZpbnB1dHPaBXNjYWxlcgMAAAByAwAAAPpiL3Vzci9sb2NhbC9saWIvcHl0aG9uMy42\nL2Rpc3QtcGFja2FnZXMvdGVuc29yZmxvdy9weXRob24va2VyYXMvYXBwbGljYXRpb25zL2luY2Vw\ndGlvbl9yZXNuZXRfdjIucHnaCDxsYW1iZGE+dAEAAPMAAAAA\n", null, null], "function_type": "lambda", "module": "tensorflow.python.keras.applications.inception_resnet_v2", "output_shape": [43, 52, 320], "output_shape_type": "raw", "output_shape_module": null, "arguments": {"scale": 0.17}}, "name": "block35_7", "inbound_nodes": [[["block35_6_ac", 0, 0, {}], ["block35_7_conv", 0, 0, {}]]]}, {"class_name": "Activation", "config": {"name": "block35_7_ac", "trainable": false, "dtype": "float32", "activation": "relu"}, "name": "block35_7_ac", "inbound_nodes": [[["block35_7", 0, 0, {}]]]}, {"class_name": "Conv2D", "config": {"name": "conv2d_666", "trainable": false, "dtype": "float32", "filters": 32, "kernel_size": [1, 1], "strides": [1, 1], "padding": "same", "data_format": "channels_last", "dilation_rate": [1, 1], "groups": 1, "activation": "linear", "use_bias": false, "kernel_initializer": {"class_name": "GlorotUniform", "config": {"seed": null}}, "bias_initializer": {"class_name": "Zeros", "config": {}}, "kernel_regularizer": null, "bias_regularizer": null, "activity_regularizer": null, "kernel_constraint": null, "bias_constraint": null}, "name": "conv2d_666", "inbound_nodes": [[["block35_7_ac", 0, 0, {}]]]}, {"class_name": "BatchNormalization", "config": {"name": "batch_normalization_666", "trainable": false, "dtype": "float32", "axis": [3], "momentum": 0.99, "epsilon": 0.001, "center": true, "scale": false, "beta_initializer": {"class_name": "Zeros", "config": {}}, "gamma_initializer": {"class_name": "Ones", "config": {}}, "moving_mean_initializer": {"class_name": "Zeros", "config": {}}, "moving_variance_initializer": {"class_name": "Ones", "config": {}}, "beta_regularizer": null, "gamma_regularizer": null, "beta_constraint": null, "gamma_constraint": null}, "name": "batch_normalization_666", "inbound_nodes": [[["conv2d_666", 0, 0, {}]]]}, {"class_name": "Activation", "config": {"name": "activation_666", "trainable": false, "dtype": "float32", "activation": "relu"}, "name": "activation_666", "inbound_nodes": [[["batch_normalization_666", 0, 0, {}]]]}, {"class_name": "Conv2D", "config": {"name": "conv2d_664", "trainable": false, "dtype": "float32", "filters": 32, "kernel_size": [1, 1], "strides": [1, 1], "padding": "same", "data_format": "channels_last", "dilation_rate": [1, 1], "groups": 1, "activation": "linear", "use_bias": false, "kernel_initializer": {"class_name": "GlorotUniform", "config": {"seed": null}}, "bias_initializer": {"class_name": "Zeros", "config": {}}, "kernel_regularizer": null, "bias_regularizer": null, "activity_regularizer": null, "kernel_constraint": null, "bias_constraint": null}, "name": "conv2d_664", "inbound_nodes": [[["block35_7_ac", 0, 0, {}]]]}, {"class_name": "Conv2D", "config": {"name": "conv2d_667", "trainable": false, "dtype": "float32", "filters": 48, "kernel_size": [3, 3], "strides": [1, 1], "padding": "same", "data_format": "channels_last", "dilation_rate": [1, 1], "groups": 1, "activation": "linear", "use_bias": false, "kernel_initializer": {"class_name": "GlorotUniform", "config": {"seed": null}}, "bias_initializer": {"class_name": "Zeros", "config": {}}, "kernel_regularizer": null, "bias_regularizer": null, "activity_regularizer": null, "kernel_constraint": null, "bias_constraint": null}, "name": "conv2d_667", "inbound_nodes": [[["activation_666", 0, 0, {}]]]}, {"class_name": "BatchNormalization", "config": {"name": "batch_normalization_664", "trainable": false, "dtype": "float32", "axis": [3], "momentum": 0.99, "epsilon": 0.001, "center": true, "scale": false, "beta_initializer": {"class_name": "Zeros", "config": {}}, "gamma_initializer": {"class_name": "Ones", "config": {}}, "moving_mean_initializer": {"class_name": "Zeros", "config": {}}, "moving_variance_initializer": {"class_name": "Ones", "config": {}}, "beta_regularizer": null, "gamma_regularizer": null, "beta_constraint": null, "gamma_constraint": null}, "name": "batch_normalization_664", "inbound_nodes": [[["conv2d_664", 0, 0, {}]]]}, {"class_name": "BatchNormalization", "config": {"name": "batch_normalization_667", "trainable": false, "dtype": "float32", "axis": [3], "momentum": 0.99, "epsilon": 0.001, "center": true, "scale": false, "beta_initializer": {"class_name": "Zeros", "config": {}}, "gamma_initializer": {"class_name": "Ones", "config": {}}, "moving_mean_initializer": {"class_name": "Zeros", "config": {}}, "moving_variance_initializer": {"class_name": "Ones", "config": {}}, "beta_regularizer": null, "gamma_regularizer": null, "beta_constraint": null, "gamma_constraint": null}, "name": "batch_normalization_667", "inbound_nodes": [[["conv2d_667", 0, 0, {}]]]}, {"class_name": "Activation", "config": {"name": "activation_664", "trainable": false, "dtype": "float32", "activation": "relu"}, "name": "activation_664", "inbound_nodes": [[["batch_normalization_664", 0, 0, {}]]]}, {"class_name": "Activation", "config": {"name": "activation_667", "trainable": false, "dtype": "float32", "activation": "relu"}, "name": "activation_667", "inbound_nodes": [[["batch_normalization_667", 0, 0, {}]]]}, {"class_name": "Conv2D", "config": {"name": "conv2d_663", "trainable": false, "dtype": "float32", "filters": 32, "kernel_size": [1, 1], "strides": [1, 1], "padding": "same", "data_format": "channels_last", "dilation_rate": [1, 1], "groups": 1, "activation": "linear", "use_bias": false, "kernel_initializer": {"class_name": "GlorotUniform", "config": {"seed": null}}, "bias_initializer": {"class_name": "Zeros", "config": {}}, "kernel_regularizer": null, "bias_regularizer": null, "activity_regularizer": null, "kernel_constraint": null, "bias_constraint": null}, "name": "conv2d_663", "inbound_nodes": [[["block35_7_ac", 0, 0, {}]]]}, {"class_name": "Conv2D", "config": {"name": "conv2d_665", "trainable": false, "dtype": "float32", "filters": 32, "kernel_size": [3, 3], "strides": [1, 1], "padding": "same", "data_format": "channels_last", "dilation_rate": [1, 1], "groups": 1, "activation": "linear", "use_bias": false, "kernel_initializer": {"class_name": "GlorotUniform", "config": {"seed": null}}, "bias_initializer": {"class_name": "Zeros", "config": {}}, "kernel_regularizer": null, "bias_regularizer": null, "activity_regularizer": null, "kernel_constraint": null, "bias_constraint": null}, "name": "conv2d_665", "inbound_nodes": [[["activation_664", 0, 0, {}]]]}, {"class_name": "Conv2D", "config": {"name": "conv2d_668", "trainable": false, "dtype": "float32", "filters": 64, "kernel_size": [3, 3], "strides": [1, 1], "padding": "same", "data_format": "channels_last", "dilation_rate": [1, 1], "groups": 1, "activation": "linear", "use_bias": false, "kernel_initializer": {"class_name": "GlorotUniform", "config": {"seed": null}}, "bias_initializer": {"class_name": "Zeros", "config": {}}, "kernel_regularizer": null, "bias_regularizer": null, "activity_regularizer": null, "kernel_constraint": null, "bias_constraint": null}, "name": "conv2d_668", "inbound_nodes": [[["activation_667", 0, 0, {}]]]}, {"class_name": "BatchNormalization", "config": {"name": "batch_normalization_663", "trainable": false, "dtype": "float32", "axis": [3], "momentum": 0.99, "epsilon": 0.001, "center": true, "scale": false, "beta_initializer": {"class_name": "Zeros", "config": {}}, "gamma_initializer": {"class_name": "Ones", "config": {}}, "moving_mean_initializer": {"class_name": "Zeros", "config": {}}, "moving_variance_initializer": {"class_name": "Ones", "config": {}}, "beta_regularizer": null, "gamma_regularizer": null, "beta_constraint": null, "gamma_constraint": null}, "name": "batch_normalization_663", "inbound_nodes": [[["conv2d_663", 0, 0, {}]]]}, {"class_name": "BatchNormalization", "config": {"name": "batch_normalization_665", "trainable": false, "dtype": "float32", "axis": [3], "momentum": 0.99, "epsilon": 0.001, "center": true, "scale": false, "beta_initializer": {"class_name": "Zeros", "config": {}}, "gamma_initializer": {"class_name": "Ones", "config": {}}, "moving_mean_initializer": {"class_name": "Zeros", "config": {}}, "moving_variance_initializer": {"class_name": "Ones", "config": {}}, "beta_regularizer": null, "gamma_regularizer": null, "beta_constraint": null, "gamma_constraint": null}, "name": "batch_normalization_665", "inbound_nodes": [[["conv2d_665", 0, 0, {}]]]}, {"class_name": "BatchNormalization", "config": {"name": "batch_normalization_668", "trainable": false, "dtype": "float32", "axis": [3], "momentum": 0.99, "epsilon": 0.001, "center": true, "scale": false, "beta_initializer": {"class_name": "Zeros", "config": {}}, "gamma_initializer": {"class_name": "Ones", "config": {}}, "moving_mean_initializer": {"class_name": "Zeros", "config": {}}, "moving_variance_initializer": {"class_name": "Ones", "config": {}}, "beta_regularizer": null, "gamma_regularizer": null, "beta_constraint": null, "gamma_constraint": null}, "name": "batch_normalization_668", "inbound_nodes": [[["conv2d_668", 0, 0, {}]]]}, {"class_name": "Activation", "config": {"name": "activation_663", "trainable": false, "dtype": "float32", "activation": "relu"}, "name": "activation_663", "inbound_nodes": [[["batch_normalization_663", 0, 0, {}]]]}, {"class_name": "Activation", "config": {"name": "activation_665", "trainable": false, "dtype": "float32", "activation": "relu"}, "name": "activation_665", "inbound_nodes": [[["batch_normalization_665", 0, 0, {}]]]}, {"class_name": "Activation", "config": {"name": "activation_668", "trainable": false, "dtype": "float32", "activation": "relu"}, "name": "activation_668", "inbound_nodes": [[["batch_normalization_668", 0, 0, {}]]]}, {"class_name": "Concatenate", "config": {"name": "block35_8_mixed", "trainable": false, "dtype": "float32", "axis": 3}, "name": "block35_8_mixed", "inbound_nodes": [[["activation_663", 0, 0, {}], ["activation_665", 0, 0, {}], ["activation_668", 0, 0, {}]]]}, {"class_name": "Conv2D", "config": {"name": "block35_8_conv", "trainable": false, "dtype": "float32", "filters": 320, "kernel_size": [1, 1], "strides": [1, 1], "padding": "same", "data_format": "channels_last", "dilation_rate": [1, 1], "groups": 1, "activation": "linear", "use_bias": true, "kernel_initializer": {"class_name": "GlorotUniform", "config": {"seed": null}}, "bias_initializer": {"class_name": "Zeros", "config": {}}, "kernel_regularizer": null, "bias_regularizer": null, "activity_regularizer": null, "kernel_constraint": null, "bias_constraint": null}, "name": "block35_8_conv", "inbound_nodes": [[["block35_8_mixed", 0, 0, {}]]]}, {"class_name": "Lambda", "config": {"name": "block35_8", "trainable": false, "dtype": "float32", "function": ["4wIAAAAAAAAAAgAAAAMAAABTAAAAcxQAAAB8AGQBGQB8AGQCGQB8ARQAFwBTACkDTukAAAAA6QEA\nAACpACkC2gZpbnB1dHPaBXNjYWxlcgMAAAByAwAAAPpiL3Vzci9sb2NhbC9saWIvcHl0aG9uMy42\nL2Rpc3QtcGFja2FnZXMvdGVuc29yZmxvdy9weXRob24va2VyYXMvYXBwbGljYXRpb25zL2luY2Vw\ndGlvbl9yZXNuZXRfdjIucHnaCDxsYW1iZGE+dAEAAPMAAAAA\n", null, null], "function_type": "lambda", "module": "tensorflow.python.keras.applications.inception_resnet_v2", "output_shape": [43, 52, 320], "output_shape_type": "raw", "output_shape_module": null, "arguments": {"scale": 0.17}}, "name": "block35_8", "inbound_nodes": [[["block35_7_ac", 0, 0, {}], ["block35_8_conv", 0, 0, {}]]]}, {"class_name": "Activation", "config": {"name": "block35_8_ac", "trainable": false, "dtype": "float32", "activation": "relu"}, "name": "block35_8_ac", "inbound_nodes": [[["block35_8", 0, 0, {}]]]}, {"class_name": "Conv2D", "config": {"name": "conv2d_672", "trainable": false, "dtype": "float32", "filters": 32, "kernel_size": [1, 1], "strides": [1, 1], "padding": "same", "data_format": "channels_last", "dilation_rate": [1, 1], "groups": 1, "activation": "linear", "use_bias": false, "kernel_initializer": {"class_name": "GlorotUniform", "config": {"seed": null}}, "bias_initializer": {"class_name": "Zeros", "config": {}}, "kernel_regularizer": null, "bias_regularizer": null, "activity_regularizer": null, "kernel_constraint": null, "bias_constraint": null}, "name": "conv2d_672", "inbound_nodes": [[["block35_8_ac", 0, 0, {}]]]}, {"class_name": "BatchNormalization", "config": {"name": "batch_normalization_672", "trainable": false, "dtype": "float32", "axis": [3], "momentum": 0.99, "epsilon": 0.001, "center": true, "scale": false, "beta_initializer": {"class_name": "Zeros", "config": {}}, "gamma_initializer": {"class_name": "Ones", "config": {}}, "moving_mean_initializer": {"class_name": "Zeros", "config": {}}, "moving_variance_initializer": {"class_name": "Ones", "config": {}}, "beta_regularizer": null, "gamma_regularizer": null, "beta_constraint": null, "gamma_constraint": null}, "name": "batch_normalization_672", "inbound_nodes": [[["conv2d_672", 0, 0, {}]]]}, {"class_name": "Activation", "config": {"name": "activation_672", "trainable": false, "dtype": "float32", "activation": "relu"}, "name": "activation_672", "inbound_nodes": [[["batch_normalization_672", 0, 0, {}]]]}, {"class_name": "Conv2D", "config": {"name": "conv2d_670", "trainable": false, "dtype": "float32", "filters": 32, "kernel_size": [1, 1], "strides": [1, 1], "padding": "same", "data_format": "channels_last", "dilation_rate": [1, 1], "groups": 1, "activation": "linear", "use_bias": false, "kernel_initializer": {"class_name": "GlorotUniform", "config": {"seed": null}}, "bias_initializer": {"class_name": "Zeros", "config": {}}, "kernel_regularizer": null, "bias_regularizer": null, "activity_regularizer": null, "kernel_constraint": null, "bias_constraint": null}, "name": "conv2d_670", "inbound_nodes": [[["block35_8_ac", 0, 0, {}]]]}, {"class_name": "Conv2D", "config": {"name": "conv2d_673", "trainable": false, "dtype": "float32", "filters": 48, "kernel_size": [3, 3], "strides": [1, 1], "padding": "same", "data_format": "channels_last", "dilation_rate": [1, 1], "groups": 1, "activation": "linear", "use_bias": false, "kernel_initializer": {"class_name": "GlorotUniform", "config": {"seed": null}}, "bias_initializer": {"class_name": "Zeros", "config": {}}, "kernel_regularizer": null, "bias_regularizer": null, "activity_regularizer": null, "kernel_constraint": null, "bias_constraint": null}, "name": "conv2d_673", "inbound_nodes": [[["activation_672", 0, 0, {}]]]}, {"class_name": "BatchNormalization", "config": {"name": "batch_normalization_670", "trainable": false, "dtype": "float32", "axis": [3], "momentum": 0.99, "epsilon": 0.001, "center": true, "scale": false, "beta_initializer": {"class_name": "Zeros", "config": {}}, "gamma_initializer": {"class_name": "Ones", "config": {}}, "moving_mean_initializer": {"class_name": "Zeros", "config": {}}, "moving_variance_initializer": {"class_name": "Ones", "config": {}}, "beta_regularizer": null, "gamma_regularizer": null, "beta_constraint": null, "gamma_constraint": null}, "name": "batch_normalization_670", "inbound_nodes": [[["conv2d_670", 0, 0, {}]]]}, {"class_name": "BatchNormalization", "config": {"name": "batch_normalization_673", "trainable": false, "dtype": "float32", "axis": [3], "momentum": 0.99, "epsilon": 0.001, "center": true, "scale": false, "beta_initializer": {"class_name": "Zeros", "config": {}}, "gamma_initializer": {"class_name": "Ones", "config": {}}, "moving_mean_initializer": {"class_name": "Zeros", "config": {}}, "moving_variance_initializer": {"class_name": "Ones", "config": {}}, "beta_regularizer": null, "gamma_regularizer": null, "beta_constraint": null, "gamma_constraint": null}, "name": "batch_normalization_673", "inbound_nodes": [[["conv2d_673", 0, 0, {}]]]}, {"class_name": "Activation", "config": {"name": "activation_670", "trainable": false, "dtype": "float32", "activation": "relu"}, "name": "activation_670", "inbound_nodes": [[["batch_normalization_670", 0, 0, {}]]]}, {"class_name": "Activation", "config": {"name": "activation_673", "trainable": false, "dtype": "float32", "activation": "relu"}, "name": "activation_673", "inbound_nodes": [[["batch_normalization_673", 0, 0, {}]]]}, {"class_name": "Conv2D", "config": {"name": "conv2d_669", "trainable": false, "dtype": "float32", "filters": 32, "kernel_size": [1, 1], "strides": [1, 1], "padding": "same", "data_format": "channels_last", "dilation_rate": [1, 1], "groups": 1, "activation": "linear", "use_bias": false, "kernel_initializer": {"class_name": "GlorotUniform", "config": {"seed": null}}, "bias_initializer": {"class_name": "Zeros", "config": {}}, "kernel_regularizer": null, "bias_regularizer": null, "activity_regularizer": null, "kernel_constraint": null, "bias_constraint": null}, "name": "conv2d_669", "inbound_nodes": [[["block35_8_ac", 0, 0, {}]]]}, {"class_name": "Conv2D", "config": {"name": "conv2d_671", "trainable": false, "dtype": "float32", "filters": 32, "kernel_size": [3, 3], "strides": [1, 1], "padding": "same", "data_format": "channels_last", "dilation_rate": [1, 1], "groups": 1, "activation": "linear", "use_bias": false, "kernel_initializer": {"class_name": "GlorotUniform", "config": {"seed": null}}, "bias_initializer": {"class_name": "Zeros", "config": {}}, "kernel_regularizer": null, "bias_regularizer": null, "activity_regularizer": null, "kernel_constraint": null, "bias_constraint": null}, "name": "conv2d_671", "inbound_nodes": [[["activation_670", 0, 0, {}]]]}, {"class_name": "Conv2D", "config": {"name": "conv2d_674", "trainable": false, "dtype": "float32", "filters": 64, "kernel_size": [3, 3], "strides": [1, 1], "padding": "same", "data_format": "channels_last", "dilation_rate": [1, 1], "groups": 1, "activation": "linear", "use_bias": false, "kernel_initializer": {"class_name": "GlorotUniform", "config": {"seed": null}}, "bias_initializer": {"class_name": "Zeros", "config": {}}, "kernel_regularizer": null, "bias_regularizer": null, "activity_regularizer": null, "kernel_constraint": null, "bias_constraint": null}, "name": "conv2d_674", "inbound_nodes": [[["activation_673", 0, 0, {}]]]}, {"class_name": "BatchNormalization", "config": {"name": "batch_normalization_669", "trainable": false, "dtype": "float32", "axis": [3], "momentum": 0.99, "epsilon": 0.001, "center": true, "scale": false, "beta_initializer": {"class_name": "Zeros", "config": {}}, "gamma_initializer": {"class_name": "Ones", "config": {}}, "moving_mean_initializer": {"class_name": "Zeros", "config": {}}, "moving_variance_initializer": {"class_name": "Ones", "config": {}}, "beta_regularizer": null, "gamma_regularizer": null, "beta_constraint": null, "gamma_constraint": null}, "name": "batch_normalization_669", "inbound_nodes": [[["conv2d_669", 0, 0, {}]]]}, {"class_name": "BatchNormalization", "config": {"name": "batch_normalization_671", "trainable": false, "dtype": "float32", "axis": [3], "momentum": 0.99, "epsilon": 0.001, "center": true, "scale": false, "beta_initializer": {"class_name": "Zeros", "config": {}}, "gamma_initializer": {"class_name": "Ones", "config": {}}, "moving_mean_initializer": {"class_name": "Zeros", "config": {}}, "moving_variance_initializer": {"class_name": "Ones", "config": {}}, "beta_regularizer": null, "gamma_regularizer": null, "beta_constraint": null, "gamma_constraint": null}, "name": "batch_normalization_671", "inbound_nodes": [[["conv2d_671", 0, 0, {}]]]}, {"class_name": "BatchNormalization", "config": {"name": "batch_normalization_674", "trainable": false, "dtype": "float32", "axis": [3], "momentum": 0.99, "epsilon": 0.001, "center": true, "scale": false, "beta_initializer": {"class_name": "Zeros", "config": {}}, "gamma_initializer": {"class_name": "Ones", "config": {}}, "moving_mean_initializer": {"class_name": "Zeros", "config": {}}, "moving_variance_initializer": {"class_name": "Ones", "config": {}}, "beta_regularizer": null, "gamma_regularizer": null, "beta_constraint": null, "gamma_constraint": null}, "name": "batch_normalization_674", "inbound_nodes": [[["conv2d_674", 0, 0, {}]]]}, {"class_name": "Activation", "config": {"name": "activation_669", "trainable": false, "dtype": "float32", "activation": "relu"}, "name": "activation_669", "inbound_nodes": [[["batch_normalization_669", 0, 0, {}]]]}, {"class_name": "Activation", "config": {"name": "activation_671", "trainable": false, "dtype": "float32", "activation": "relu"}, "name": "activation_671", "inbound_nodes": [[["batch_normalization_671", 0, 0, {}]]]}, {"class_name": "Activation", "config": {"name": "activation_674", "trainable": false, "dtype": "float32", "activation": "relu"}, "name": "activation_674", "inbound_nodes": [[["batch_normalization_674", 0, 0, {}]]]}, {"class_name": "Concatenate", "config": {"name": "block35_9_mixed", "trainable": false, "dtype": "float32", "axis": 3}, "name": "block35_9_mixed", "inbound_nodes": [[["activation_669", 0, 0, {}], ["activation_671", 0, 0, {}], ["activation_674", 0, 0, {}]]]}, {"class_name": "Conv2D", "config": {"name": "block35_9_conv", "trainable": false, "dtype": "float32", "filters": 320, "kernel_size": [1, 1], "strides": [1, 1], "padding": "same", "data_format": "channels_last", "dilation_rate": [1, 1], "groups": 1, "activation": "linear", "use_bias": true, "kernel_initializer": {"class_name": "GlorotUniform", "config": {"seed": null}}, "bias_initializer": {"class_name": "Zeros", "config": {}}, "kernel_regularizer": null, "bias_regularizer": null, "activity_regularizer": null, "kernel_constraint": null, "bias_constraint": null}, "name": "block35_9_conv", "inbound_nodes": [[["block35_9_mixed", 0, 0, {}]]]}, {"class_name": "Lambda", "config": {"name": "block35_9", "trainable": false, "dtype": "float32", "function": ["4wIAAAAAAAAAAgAAAAMAAABTAAAAcxQAAAB8AGQBGQB8AGQCGQB8ARQAFwBTACkDTukAAAAA6QEA\nAACpACkC2gZpbnB1dHPaBXNjYWxlcgMAAAByAwAAAPpiL3Vzci9sb2NhbC9saWIvcHl0aG9uMy42\nL2Rpc3QtcGFja2FnZXMvdGVuc29yZmxvdy9weXRob24va2VyYXMvYXBwbGljYXRpb25zL2luY2Vw\ndGlvbl9yZXNuZXRfdjIucHnaCDxsYW1iZGE+dAEAAPMAAAAA\n", null, null], "function_type": "lambda", "module": "tensorflow.python.keras.applications.inception_resnet_v2", "output_shape": [43, 52, 320], "output_shape_type": "raw", "output_shape_module": null, "arguments": {"scale": 0.17}}, "name": "block35_9", "inbound_nodes": [[["block35_8_ac", 0, 0, {}], ["block35_9_conv", 0, 0, {}]]]}, {"class_name": "Activation", "config": {"name": "block35_9_ac", "trainable": false, "dtype": "float32", "activation": "relu"}, "name": "block35_9_ac", "inbound_nodes": [[["block35_9", 0, 0, {}]]]}, {"class_name": "Conv2D", "config": {"name": "conv2d_678", "trainable": false, "dtype": "float32", "filters": 32, "kernel_size": [1, 1], "strides": [1, 1], "padding": "same", "data_format": "channels_last", "dilation_rate": [1, 1], "groups": 1, "activation": "linear", "use_bias": false, "kernel_initializer": {"class_name": "GlorotUniform", "config": {"seed": null}}, "bias_initializer": {"class_name": "Zeros", "config": {}}, "kernel_regularizer": null, "bias_regularizer": null, "activity_regularizer": null, "kernel_constraint": null, "bias_constraint": null}, "name": "conv2d_678", "inbound_nodes": [[["block35_9_ac", 0, 0, {}]]]}, {"class_name": "BatchNormalization", "config": {"name": "batch_normalization_678", "trainable": false, "dtype": "float32", "axis": [3], "momentum": 0.99, "epsilon": 0.001, "center": true, "scale": false, "beta_initializer": {"class_name": "Zeros", "config": {}}, "gamma_initializer": {"class_name": "Ones", "config": {}}, "moving_mean_initializer": {"class_name": "Zeros", "config": {}}, "moving_variance_initializer": {"class_name": "Ones", "config": {}}, "beta_regularizer": null, "gamma_regularizer": null, "beta_constraint": null, "gamma_constraint": null}, "name": "batch_normalization_678", "inbound_nodes": [[["conv2d_678", 0, 0, {}]]]}, {"class_name": "Activation", "config": {"name": "activation_678", "trainable": false, "dtype": "float32", "activation": "relu"}, "name": "activation_678", "inbound_nodes": [[["batch_normalization_678", 0, 0, {}]]]}, {"class_name": "Conv2D", "config": {"name": "conv2d_676", "trainable": false, "dtype": "float32", "filters": 32, "kernel_size": [1, 1], "strides": [1, 1], "padding": "same", "data_format": "channels_last", "dilation_rate": [1, 1], "groups": 1, "activation": "linear", "use_bias": false, "kernel_initializer": {"class_name": "GlorotUniform", "config": {"seed": null}}, "bias_initializer": {"class_name": "Zeros", "config": {}}, "kernel_regularizer": null, "bias_regularizer": null, "activity_regularizer": null, "kernel_constraint": null, "bias_constraint": null}, "name": "conv2d_676", "inbound_nodes": [[["block35_9_ac", 0, 0, {}]]]}, {"class_name": "Conv2D", "config": {"name": "conv2d_679", "trainable": false, "dtype": "float32", "filters": 48, "kernel_size": [3, 3], "strides": [1, 1], "padding": "same", "data_format": "channels_last", "dilation_rate": [1, 1], "groups": 1, "activation": "linear", "use_bias": false, "kernel_initializer": {"class_name": "GlorotUniform", "config": {"seed": null}}, "bias_initializer": {"class_name": "Zeros", "config": {}}, "kernel_regularizer": null, "bias_regularizer": null, "activity_regularizer": null, "kernel_constraint": null, "bias_constraint": null}, "name": "conv2d_679", "inbound_nodes": [[["activation_678", 0, 0, {}]]]}, {"class_name": "BatchNormalization", "config": {"name": "batch_normalization_676", "trainable": false, "dtype": "float32", "axis": [3], "momentum": 0.99, "epsilon": 0.001, "center": true, "scale": false, "beta_initializer": {"class_name": "Zeros", "config": {}}, "gamma_initializer": {"class_name": "Ones", "config": {}}, "moving_mean_initializer": {"class_name": "Zeros", "config": {}}, "moving_variance_initializer": {"class_name": "Ones", "config": {}}, "beta_regularizer": null, "gamma_regularizer": null, "beta_constraint": null, "gamma_constraint": null}, "name": "batch_normalization_676", "inbound_nodes": [[["conv2d_676", 0, 0, {}]]]}, {"class_name": "BatchNormalization", "config": {"name": "batch_normalization_679", "trainable": false, "dtype": "float32", "axis": [3], "momentum": 0.99, "epsilon": 0.001, "center": true, "scale": false, "beta_initializer": {"class_name": "Zeros", "config": {}}, "gamma_initializer": {"class_name": "Ones", "config": {}}, "moving_mean_initializer": {"class_name": "Zeros", "config": {}}, "moving_variance_initializer": {"class_name": "Ones", "config": {}}, "beta_regularizer": null, "gamma_regularizer": null, "beta_constraint": null, "gamma_constraint": null}, "name": "batch_normalization_679", "inbound_nodes": [[["conv2d_679", 0, 0, {}]]]}, {"class_name": "Activation", "config": {"name": "activation_676", "trainable": false, "dtype": "float32", "activation": "relu"}, "name": "activation_676", "inbound_nodes": [[["batch_normalization_676", 0, 0, {}]]]}, {"class_name": "Activation", "config": {"name": "activation_679", "trainable": false, "dtype": "float32", "activation": "relu"}, "name": "activation_679", "inbound_nodes": [[["batch_normalization_679", 0, 0, {}]]]}, {"class_name": "Conv2D", "config": {"name": "conv2d_675", "trainable": false, "dtype": "float32", "filters": 32, "kernel_size": [1, 1], "strides": [1, 1], "padding": "same", "data_format": "channels_last", "dilation_rate": [1, 1], "groups": 1, "activation": "linear", "use_bias": false, "kernel_initializer": {"class_name": "GlorotUniform", "config": {"seed": null}}, "bias_initializer": {"class_name": "Zeros", "config": {}}, "kernel_regularizer": null, "bias_regularizer": null, "activity_regularizer": null, "kernel_constraint": null, "bias_constraint": null}, "name": "conv2d_675", "inbound_nodes": [[["block35_9_ac", 0, 0, {}]]]}, {"class_name": "Conv2D", "config": {"name": "conv2d_677", "trainable": false, "dtype": "float32", "filters": 32, "kernel_size": [3, 3], "strides": [1, 1], "padding": "same", "data_format": "channels_last", "dilation_rate": [1, 1], "groups": 1, "activation": "linear", "use_bias": false, "kernel_initializer": {"class_name": "GlorotUniform", "config": {"seed": null}}, "bias_initializer": {"class_name": "Zeros", "config": {}}, "kernel_regularizer": null, "bias_regularizer": null, "activity_regularizer": null, "kernel_constraint": null, "bias_constraint": null}, "name": "conv2d_677", "inbound_nodes": [[["activation_676", 0, 0, {}]]]}, {"class_name": "Conv2D", "config": {"name": "conv2d_680", "trainable": false, "dtype": "float32", "filters": 64, "kernel_size": [3, 3], "strides": [1, 1], "padding": "same", "data_format": "channels_last", "dilation_rate": [1, 1], "groups": 1, "activation": "linear", "use_bias": false, "kernel_initializer": {"class_name": "GlorotUniform", "config": {"seed": null}}, "bias_initializer": {"class_name": "Zeros", "config": {}}, "kernel_regularizer": null, "bias_regularizer": null, "activity_regularizer": null, "kernel_constraint": null, "bias_constraint": null}, "name": "conv2d_680", "inbound_nodes": [[["activation_679", 0, 0, {}]]]}, {"class_name": "BatchNormalization", "config": {"name": "batch_normalization_675", "trainable": false, "dtype": "float32", "axis": [3], "momentum": 0.99, "epsilon": 0.001, "center": true, "scale": false, "beta_initializer": {"class_name": "Zeros", "config": {}}, "gamma_initializer": {"class_name": "Ones", "config": {}}, "moving_mean_initializer": {"class_name": "Zeros", "config": {}}, "moving_variance_initializer": {"class_name": "Ones", "config": {}}, "beta_regularizer": null, "gamma_regularizer": null, "beta_constraint": null, "gamma_constraint": null}, "name": "batch_normalization_675", "inbound_nodes": [[["conv2d_675", 0, 0, {}]]]}, {"class_name": "BatchNormalization", "config": {"name": "batch_normalization_677", "trainable": false, "dtype": "float32", "axis": [3], "momentum": 0.99, "epsilon": 0.001, "center": true, "scale": false, "beta_initializer": {"class_name": "Zeros", "config": {}}, "gamma_initializer": {"class_name": "Ones", "config": {}}, "moving_mean_initializer": {"class_name": "Zeros", "config": {}}, "moving_variance_initializer": {"class_name": "Ones", "config": {}}, "beta_regularizer": null, "gamma_regularizer": null, "beta_constraint": null, "gamma_constraint": null}, "name": "batch_normalization_677", "inbound_nodes": [[["conv2d_677", 0, 0, {}]]]}, {"class_name": "BatchNormalization", "config": {"name": "batch_normalization_680", "trainable": false, "dtype": "float32", "axis": [3], "momentum": 0.99, "epsilon": 0.001, "center": true, "scale": false, "beta_initializer": {"class_name": "Zeros", "config": {}}, "gamma_initializer": {"class_name": "Ones", "config": {}}, "moving_mean_initializer": {"class_name": "Zeros", "config": {}}, "moving_variance_initializer": {"class_name": "Ones", "config": {}}, "beta_regularizer": null, "gamma_regularizer": null, "beta_constraint": null, "gamma_constraint": null}, "name": "batch_normalization_680", "inbound_nodes": [[["conv2d_680", 0, 0, {}]]]}, {"class_name": "Activation", "config": {"name": "activation_675", "trainable": false, "dtype": "float32", "activation": "relu"}, "name": "activation_675", "inbound_nodes": [[["batch_normalization_675", 0, 0, {}]]]}, {"class_name": "Activation", "config": {"name": "activation_677", "trainable": false, "dtype": "float32", "activation": "relu"}, "name": "activation_677", "inbound_nodes": [[["batch_normalization_677", 0, 0, {}]]]}, {"class_name": "Activation", "config": {"name": "activation_680", "trainable": false, "dtype": "float32", "activation": "relu"}, "name": "activation_680", "inbound_nodes": [[["batch_normalization_680", 0, 0, {}]]]}, {"class_name": "Concatenate", "config": {"name": "block35_10_mixed", "trainable": false, "dtype": "float32", "axis": 3}, "name": "block35_10_mixed", "inbound_nodes": [[["activation_675", 0, 0, {}], ["activation_677", 0, 0, {}], ["activation_680", 0, 0, {}]]]}, {"class_name": "Conv2D", "config": {"name": "block35_10_conv", "trainable": false, "dtype": "float32", "filters": 320, "kernel_size": [1, 1], "strides": [1, 1], "padding": "same", "data_format": "channels_last", "dilation_rate": [1, 1], "groups": 1, "activation": "linear", "use_bias": true, "kernel_initializer": {"class_name": "GlorotUniform", "config": {"seed": null}}, "bias_initializer": {"class_name": "Zeros", "config": {}}, "kernel_regularizer": null, "bias_regularizer": null, "activity_regularizer": null, "kernel_constraint": null, "bias_constraint": null}, "name": "block35_10_conv", "inbound_nodes": [[["block35_10_mixed", 0, 0, {}]]]}, {"class_name": "Lambda", "config": {"name": "block35_10", "trainable": false, "dtype": "float32", "function": ["4wIAAAAAAAAAAgAAAAMAAABTAAAAcxQAAAB8AGQBGQB8AGQCGQB8ARQAFwBTACkDTukAAAAA6QEA\nAACpACkC2gZpbnB1dHPaBXNjYWxlcgMAAAByAwAAAPpiL3Vzci9sb2NhbC9saWIvcHl0aG9uMy42\nL2Rpc3QtcGFja2FnZXMvdGVuc29yZmxvdy9weXRob24va2VyYXMvYXBwbGljYXRpb25zL2luY2Vw\ndGlvbl9yZXNuZXRfdjIucHnaCDxsYW1iZGE+dAEAAPMAAAAA\n", null, null], "function_type": "lambda", "module": "tensorflow.python.keras.applications.inception_resnet_v2", "output_shape": [43, 52, 320], "output_shape_type": "raw", "output_shape_module": null, "arguments": {"scale": 0.17}}, "name": "block35_10", "inbound_nodes": [[["block35_9_ac", 0, 0, {}], ["block35_10_conv", 0, 0, {}]]]}, {"class_name": "Activation", "config": {"name": "block35_10_ac", "trainable": false, "dtype": "float32", "activation": "relu"}, "name": "block35_10_ac", "inbound_nodes": [[["block35_10", 0, 0, {}]]]}, {"class_name": "Conv2D", "config": {"name": "conv2d_682", "trainable": false, "dtype": "float32", "filters": 256, "kernel_size": [1, 1], "strides": [1, 1], "padding": "same", "data_format": "channels_last", "dilation_rate": [1, 1], "groups": 1, "activation": "linear", "use_bias": false, "kernel_initializer": {"class_name": "GlorotUniform", "config": {"seed": null}}, "bias_initializer": {"class_name": "Zeros", "config": {}}, "kernel_regularizer": null, "bias_regularizer": null, "activity_regularizer": null, "kernel_constraint": null, "bias_constraint": null}, "name": "conv2d_682", "inbound_nodes": [[["block35_10_ac", 0, 0, {}]]]}, {"class_name": "BatchNormalization", "config": {"name": "batch_normalization_682", "trainable": false, "dtype": "float32", "axis": [3], "momentum": 0.99, "epsilon": 0.001, "center": true, "scale": false, "beta_initializer": {"class_name": "Zeros", "config": {}}, "gamma_initializer": {"class_name": "Ones", "config": {}}, "moving_mean_initializer": {"class_name": "Zeros", "config": {}}, "moving_variance_initializer": {"class_name": "Ones", "config": {}}, "beta_regularizer": null, "gamma_regularizer": null, "beta_constraint": null, "gamma_constraint": null}, "name": "batch_normalization_682", "inbound_nodes": [[["conv2d_682", 0, 0, {}]]]}, {"class_name": "Activation", "config": {"name": "activation_682", "trainable": false, "dtype": "float32", "activation": "relu"}, "name": "activation_682", "inbound_nodes": [[["batch_normalization_682", 0, 0, {}]]]}, {"class_name": "Conv2D", "config": {"name": "conv2d_683", "trainable": false, "dtype": "float32", "filters": 256, "kernel_size": [3, 3], "strides": [1, 1], "padding": "same", "data_format": "channels_last", "dilation_rate": [1, 1], "groups": 1, "activation": "linear", "use_bias": false, "kernel_initializer": {"class_name": "GlorotUniform", "config": {"seed": null}}, "bias_initializer": {"class_name": "Zeros", "config": {}}, "kernel_regularizer": null, "bias_regularizer": null, "activity_regularizer": null, "kernel_constraint": null, "bias_constraint": null}, "name": "conv2d_683", "inbound_nodes": [[["activation_682", 0, 0, {}]]]}, {"class_name": "BatchNormalization", "config": {"name": "batch_normalization_683", "trainable": false, "dtype": "float32", "axis": [3], "momentum": 0.99, "epsilon": 0.001, "center": true, "scale": false, "beta_initializer": {"class_name": "Zeros", "config": {}}, "gamma_initializer": {"class_name": "Ones", "config": {}}, "moving_mean_initializer": {"class_name": "Zeros", "config": {}}, "moving_variance_initializer": {"class_name": "Ones", "config": {}}, "beta_regularizer": null, "gamma_regularizer": null, "beta_constraint": null, "gamma_constraint": null}, "name": "batch_normalization_683", "inbound_nodes": [[["conv2d_683", 0, 0, {}]]]}, {"class_name": "Activation", "config": {"name": "activation_683", "trainable": false, "dtype": "float32", "activation": "relu"}, "name": "activation_683", "inbound_nodes": [[["batch_normalization_683", 0, 0, {}]]]}, {"class_name": "Conv2D", "config": {"name": "conv2d_681", "trainable": false, "dtype": "float32", "filters": 384, "kernel_size": [3, 3], "strides": [2, 2], "padding": "valid", "data_format": "channels_last", "dilation_rate": [1, 1], "groups": 1, "activation": "linear", "use_bias": false, "kernel_initializer": {"class_name": "GlorotUniform", "config": {"seed": null}}, "bias_initializer": {"class_name": "Zeros", "config": {}}, "kernel_regularizer": null, "bias_regularizer": null, "activity_regularizer": null, "kernel_constraint": null, "bias_constraint": null}, "name": "conv2d_681", "inbound_nodes": [[["block35_10_ac", 0, 0, {}]]]}, {"class_name": "Conv2D", "config": {"name": "conv2d_684", "trainable": false, "dtype": "float32", "filters": 384, "kernel_size": [3, 3], "strides": [2, 2], "padding": "valid", "data_format": "channels_last", "dilation_rate": [1, 1], "groups": 1, "activation": "linear", "use_bias": false, "kernel_initializer": {"class_name": "GlorotUniform", "config": {"seed": null}}, "bias_initializer": {"class_name": "Zeros", "config": {}}, "kernel_regularizer": null, "bias_regularizer": null, "activity_regularizer": null, "kernel_constraint": null, "bias_constraint": null}, "name": "conv2d_684", "inbound_nodes": [[["activation_683", 0, 0, {}]]]}, {"class_name": "BatchNormalization", "config": {"name": "batch_normalization_681", "trainable": false, "dtype": "float32", "axis": [3], "momentum": 0.99, "epsilon": 0.001, "center": true, "scale": false, "beta_initializer": {"class_name": "Zeros", "config": {}}, "gamma_initializer": {"class_name": "Ones", "config": {}}, "moving_mean_initializer": {"class_name": "Zeros", "config": {}}, "moving_variance_initializer": {"class_name": "Ones", "config": {}}, "beta_regularizer": null, "gamma_regularizer": null, "beta_constraint": null, "gamma_constraint": null}, "name": "batch_normalization_681", "inbound_nodes": [[["conv2d_681", 0, 0, {}]]]}, {"class_name": "BatchNormalization", "config": {"name": "batch_normalization_684", "trainable": false, "dtype": "float32", "axis": [3], "momentum": 0.99, "epsilon": 0.001, "center": true, "scale": false, "beta_initializer": {"class_name": "Zeros", "config": {}}, "gamma_initializer": {"class_name": "Ones", "config": {}}, "moving_mean_initializer": {"class_name": "Zeros", "config": {}}, "moving_variance_initializer": {"class_name": "Ones", "config": {}}, "beta_regularizer": null, "gamma_regularizer": null, "beta_constraint": null, "gamma_constraint": null}, "name": "batch_normalization_684", "inbound_nodes": [[["conv2d_684", 0, 0, {}]]]}, {"class_name": "Activation", "config": {"name": "activation_681", "trainable": false, "dtype": "float32", "activation": "relu"}, "name": "activation_681", "inbound_nodes": [[["batch_normalization_681", 0, 0, {}]]]}, {"class_name": "Activation", "config": {"name": "activation_684", "trainable": false, "dtype": "float32", "activation": "relu"}, "name": "activation_684", "inbound_nodes": [[["batch_normalization_684", 0, 0, {}]]]}, {"class_name": "MaxPooling2D", "config": {"name": "max_pooling2d_14", "trainable": false, "dtype": "float32", "pool_size": [3, 3], "padding": "valid", "strides": [2, 2], "data_format": "channels_last"}, "name": "max_pooling2d_14", "inbound_nodes": [[["block35_10_ac", 0, 0, {}]]]}, {"class_name": "Concatenate", "config": {"name": "mixed_6a", "trainable": false, "dtype": "float32", "axis": 3}, "name": "mixed_6a", "inbound_nodes": [[["activation_681", 0, 0, {}], ["activation_684", 0, 0, {}], ["max_pooling2d_14", 0, 0, {}]]]}, {"class_name": "Conv2D", "config": {"name": "conv2d_686", "trainable": false, "dtype": "float32", "filters": 128, "kernel_size": [1, 1], "strides": [1, 1], "padding": "same", "data_format": "channels_last", "dilation_rate": [1, 1], "groups": 1, "activation": "linear", "use_bias": false, "kernel_initializer": {"class_name": "GlorotUniform", "config": {"seed": null}}, "bias_initializer": {"class_name": "Zeros", "config": {}}, "kernel_regularizer": null, "bias_regularizer": null, "activity_regularizer": null, "kernel_constraint": null, "bias_constraint": null}, "name": "conv2d_686", "inbound_nodes": [[["mixed_6a", 0, 0, {}]]]}, {"class_name": "BatchNormalization", "config": {"name": "batch_normalization_686", "trainable": false, "dtype": "float32", "axis": [3], "momentum": 0.99, "epsilon": 0.001, "center": true, "scale": false, "beta_initializer": {"class_name": "Zeros", "config": {}}, "gamma_initializer": {"class_name": "Ones", "config": {}}, "moving_mean_initializer": {"class_name": "Zeros", "config": {}}, "moving_variance_initializer": {"class_name": "Ones", "config": {}}, "beta_regularizer": null, "gamma_regularizer": null, "beta_constraint": null, "gamma_constraint": null}, "name": "batch_normalization_686", "inbound_nodes": [[["conv2d_686", 0, 0, {}]]]}, {"class_name": "Activation", "config": {"name": "activation_686", "trainable": false, "dtype": "float32", "activation": "relu"}, "name": "activation_686", "inbound_nodes": [[["batch_normalization_686", 0, 0, {}]]]}, {"class_name": "Conv2D", "config": {"name": "conv2d_687", "trainable": false, "dtype": "float32", "filters": 160, "kernel_size": [1, 7], "strides": [1, 1], "padding": "same", "data_format": "channels_last", "dilation_rate": [1, 1], "groups": 1, "activation": "linear", "use_bias": false, "kernel_initializer": {"class_name": "GlorotUniform", "config": {"seed": null}}, "bias_initializer": {"class_name": "Zeros", "config": {}}, "kernel_regularizer": null, "bias_regularizer": null, "activity_regularizer": null, "kernel_constraint": null, "bias_constraint": null}, "name": "conv2d_687", "inbound_nodes": [[["activation_686", 0, 0, {}]]]}, {"class_name": "BatchNormalization", "config": {"name": "batch_normalization_687", "trainable": false, "dtype": "float32", "axis": [3], "momentum": 0.99, "epsilon": 0.001, "center": true, "scale": false, "beta_initializer": {"class_name": "Zeros", "config": {}}, "gamma_initializer": {"class_name": "Ones", "config": {}}, "moving_mean_initializer": {"class_name": "Zeros", "config": {}}, "moving_variance_initializer": {"class_name": "Ones", "config": {}}, "beta_regularizer": null, "gamma_regularizer": null, "beta_constraint": null, "gamma_constraint": null}, "name": "batch_normalization_687", "inbound_nodes": [[["conv2d_687", 0, 0, {}]]]}, {"class_name": "Activation", "config": {"name": "activation_687", "trainable": false, "dtype": "float32", "activation": "relu"}, "name": "activation_687", "inbound_nodes": [[["batch_normalization_687", 0, 0, {}]]]}, {"class_name": "Conv2D", "config": {"name": "conv2d_685", "trainable": false, "dtype": "float32", "filters": 192, "kernel_size": [1, 1], "strides": [1, 1], "padding": "same", "data_format": "channels_last", "dilation_rate": [1, 1], "groups": 1, "activation": "linear", "use_bias": false, "kernel_initializer": {"class_name": "GlorotUniform", "config": {"seed": null}}, "bias_initializer": {"class_name": "Zeros", "config": {}}, "kernel_regularizer": null, "bias_regularizer": null, "activity_regularizer": null, "kernel_constraint": null, "bias_constraint": null}, "name": "conv2d_685", "inbound_nodes": [[["mixed_6a", 0, 0, {}]]]}, {"class_name": "Conv2D", "config": {"name": "conv2d_688", "trainable": false, "dtype": "float32", "filters": 192, "kernel_size": [7, 1], "strides": [1, 1], "padding": "same", "data_format": "channels_last", "dilation_rate": [1, 1], "groups": 1, "activation": "linear", "use_bias": false, "kernel_initializer": {"class_name": "GlorotUniform", "config": {"seed": null}}, "bias_initializer": {"class_name": "Zeros", "config": {}}, "kernel_regularizer": null, "bias_regularizer": null, "activity_regularizer": null, "kernel_constraint": null, "bias_constraint": null}, "name": "conv2d_688", "inbound_nodes": [[["activation_687", 0, 0, {}]]]}, {"class_name": "BatchNormalization", "config": {"name": "batch_normalization_685", "trainable": false, "dtype": "float32", "axis": [3], "momentum": 0.99, "epsilon": 0.001, "center": true, "scale": false, "beta_initializer": {"class_name": "Zeros", "config": {}}, "gamma_initializer": {"class_name": "Ones", "config": {}}, "moving_mean_initializer": {"class_name": "Zeros", "config": {}}, "moving_variance_initializer": {"class_name": "Ones", "config": {}}, "beta_regularizer": null, "gamma_regularizer": null, "beta_constraint": null, "gamma_constraint": null}, "name": "batch_normalization_685", "inbound_nodes": [[["conv2d_685", 0, 0, {}]]]}, {"class_name": "BatchNormalization", "config": {"name": "batch_normalization_688", "trainable": false, "dtype": "float32", "axis": [3], "momentum": 0.99, "epsilon": 0.001, "center": true, "scale": false, "beta_initializer": {"class_name": "Zeros", "config": {}}, "gamma_initializer": {"class_name": "Ones", "config": {}}, "moving_mean_initializer": {"class_name": "Zeros", "config": {}}, "moving_variance_initializer": {"class_name": "Ones", "config": {}}, "beta_regularizer": null, "gamma_regularizer": null, "beta_constraint": null, "gamma_constraint": null}, "name": "batch_normalization_688", "inbound_nodes": [[["conv2d_688", 0, 0, {}]]]}, {"class_name": "Activation", "config": {"name": "activation_685", "trainable": false, "dtype": "float32", "activation": "relu"}, "name": "activation_685", "inbound_nodes": [[["batch_normalization_685", 0, 0, {}]]]}, {"class_name": "Activation", "config": {"name": "activation_688", "trainable": false, "dtype": "float32", "activation": "relu"}, "name": "activation_688", "inbound_nodes": [[["batch_normalization_688", 0, 0, {}]]]}, {"class_name": "Concatenate", "config": {"name": "block17_1_mixed", "trainable": false, "dtype": "float32", "axis": 3}, "name": "block17_1_mixed", "inbound_nodes": [[["activation_685", 0, 0, {}], ["activation_688", 0, 0, {}]]]}, {"class_name": "Conv2D", "config": {"name": "block17_1_conv", "trainable": false, "dtype": "float32", "filters": 1088, "kernel_size": [1, 1], "strides": [1, 1], "padding": "same", "data_format": "channels_last", "dilation_rate": [1, 1], "groups": 1, "activation": "linear", "use_bias": true, "kernel_initializer": {"class_name": "GlorotUniform", "config": {"seed": null}}, "bias_initializer": {"class_name": "Zeros", "config": {}}, "kernel_regularizer": null, "bias_regularizer": null, "activity_regularizer": null, "kernel_constraint": null, "bias_constraint": null}, "name": "block17_1_conv", "inbound_nodes": [[["block17_1_mixed", 0, 0, {}]]]}, {"class_name": "Lambda", "config": {"name": "block17_1", "trainable": false, "dtype": "float32", "function": ["4wIAAAAAAAAAAgAAAAMAAABTAAAAcxQAAAB8AGQBGQB8AGQCGQB8ARQAFwBTACkDTukAAAAA6QEA\nAACpACkC2gZpbnB1dHPaBXNjYWxlcgMAAAByAwAAAPpiL3Vzci9sb2NhbC9saWIvcHl0aG9uMy42\nL2Rpc3QtcGFja2FnZXMvdGVuc29yZmxvdy9weXRob24va2VyYXMvYXBwbGljYXRpb25zL2luY2Vw\ndGlvbl9yZXNuZXRfdjIucHnaCDxsYW1iZGE+dAEAAPMAAAAA\n", null, null], "function_type": "lambda", "module": "tensorflow.python.keras.applications.inception_resnet_v2", "output_shape": [21, 25, 1088], "output_shape_type": "raw", "output_shape_module": null, "arguments": {"scale": 0.1}}, "name": "block17_1", "inbound_nodes": [[["mixed_6a", 0, 0, {}], ["block17_1_conv", 0, 0, {}]]]}, {"class_name": "Activation", "config": {"name": "block17_1_ac", "trainable": false, "dtype": "float32", "activation": "relu"}, "name": "block17_1_ac", "inbound_nodes": [[["block17_1", 0, 0, {}]]]}, {"class_name": "Conv2D", "config": {"name": "conv2d_690", "trainable": false, "dtype": "float32", "filters": 128, "kernel_size": [1, 1], "strides": [1, 1], "padding": "same", "data_format": "channels_last", "dilation_rate": [1, 1], "groups": 1, "activation": "linear", "use_bias": false, "kernel_initializer": {"class_name": "GlorotUniform", "config": {"seed": null}}, "bias_initializer": {"class_name": "Zeros", "config": {}}, "kernel_regularizer": null, "bias_regularizer": null, "activity_regularizer": null, "kernel_constraint": null, "bias_constraint": null}, "name": "conv2d_690", "inbound_nodes": [[["block17_1_ac", 0, 0, {}]]]}, {"class_name": "BatchNormalization", "config": {"name": "batch_normalization_690", "trainable": false, "dtype": "float32", "axis": [3], "momentum": 0.99, "epsilon": 0.001, "center": true, "scale": false, "beta_initializer": {"class_name": "Zeros", "config": {}}, "gamma_initializer": {"class_name": "Ones", "config": {}}, "moving_mean_initializer": {"class_name": "Zeros", "config": {}}, "moving_variance_initializer": {"class_name": "Ones", "config": {}}, "beta_regularizer": null, "gamma_regularizer": null, "beta_constraint": null, "gamma_constraint": null}, "name": "batch_normalization_690", "inbound_nodes": [[["conv2d_690", 0, 0, {}]]]}, {"class_name": "Activation", "config": {"name": "activation_690", "trainable": false, "dtype": "float32", "activation": "relu"}, "name": "activation_690", "inbound_nodes": [[["batch_normalization_690", 0, 0, {}]]]}, {"class_name": "Conv2D", "config": {"name": "conv2d_691", "trainable": false, "dtype": "float32", "filters": 160, "kernel_size": [1, 7], "strides": [1, 1], "padding": "same", "data_format": "channels_last", "dilation_rate": [1, 1], "groups": 1, "activation": "linear", "use_bias": false, "kernel_initializer": {"class_name": "GlorotUniform", "config": {"seed": null}}, "bias_initializer": {"class_name": "Zeros", "config": {}}, "kernel_regularizer": null, "bias_regularizer": null, "activity_regularizer": null, "kernel_constraint": null, "bias_constraint": null}, "name": "conv2d_691", "inbound_nodes": [[["activation_690", 0, 0, {}]]]}, {"class_name": "BatchNormalization", "config": {"name": "batch_normalization_691", "trainable": false, "dtype": "float32", "axis": [3], "momentum": 0.99, "epsilon": 0.001, "center": true, "scale": false, "beta_initializer": {"class_name": "Zeros", "config": {}}, "gamma_initializer": {"class_name": "Ones", "config": {}}, "moving_mean_initializer": {"class_name": "Zeros", "config": {}}, "moving_variance_initializer": {"class_name": "Ones", "config": {}}, "beta_regularizer": null, "gamma_regularizer": null, "beta_constraint": null, "gamma_constraint": null}, "name": "batch_normalization_691", "inbound_nodes": [[["conv2d_691", 0, 0, {}]]]}, {"class_name": "Activation", "config": {"name": "activation_691", "trainable": false, "dtype": "float32", "activation": "relu"}, "name": "activation_691", "inbound_nodes": [[["batch_normalization_691", 0, 0, {}]]]}, {"class_name": "Conv2D", "config": {"name": "conv2d_689", "trainable": false, "dtype": "float32", "filters": 192, "kernel_size": [1, 1], "strides": [1, 1], "padding": "same", "data_format": "channels_last", "dilation_rate": [1, 1], "groups": 1, "activation": "linear", "use_bias": false, "kernel_initializer": {"class_name": "GlorotUniform", "config": {"seed": null}}, "bias_initializer": {"class_name": "Zeros", "config": {}}, "kernel_regularizer": null, "bias_regularizer": null, "activity_regularizer": null, "kernel_constraint": null, "bias_constraint": null}, "name": "conv2d_689", "inbound_nodes": [[["block17_1_ac", 0, 0, {}]]]}, {"class_name": "Conv2D", "config": {"name": "conv2d_692", "trainable": false, "dtype": "float32", "filters": 192, "kernel_size": [7, 1], "strides": [1, 1], "padding": "same", "data_format": "channels_last", "dilation_rate": [1, 1], "groups": 1, "activation": "linear", "use_bias": false, "kernel_initializer": {"class_name": "GlorotUniform", "config": {"seed": null}}, "bias_initializer": {"class_name": "Zeros", "config": {}}, "kernel_regularizer": null, "bias_regularizer": null, "activity_regularizer": null, "kernel_constraint": null, "bias_constraint": null}, "name": "conv2d_692", "inbound_nodes": [[["activation_691", 0, 0, {}]]]}, {"class_name": "BatchNormalization", "config": {"name": "batch_normalization_689", "trainable": false, "dtype": "float32", "axis": [3], "momentum": 0.99, "epsilon": 0.001, "center": true, "scale": false, "beta_initializer": {"class_name": "Zeros", "config": {}}, "gamma_initializer": {"class_name": "Ones", "config": {}}, "moving_mean_initializer": {"class_name": "Zeros", "config": {}}, "moving_variance_initializer": {"class_name": "Ones", "config": {}}, "beta_regularizer": null, "gamma_regularizer": null, "beta_constraint": null, "gamma_constraint": null}, "name": "batch_normalization_689", "inbound_nodes": [[["conv2d_689", 0, 0, {}]]]}, {"class_name": "BatchNormalization", "config": {"name": "batch_normalization_692", "trainable": false, "dtype": "float32", "axis": [3], "momentum": 0.99, "epsilon": 0.001, "center": true, "scale": false, "beta_initializer": {"class_name": "Zeros", "config": {}}, "gamma_initializer": {"class_name": "Ones", "config": {}}, "moving_mean_initializer": {"class_name": "Zeros", "config": {}}, "moving_variance_initializer": {"class_name": "Ones", "config": {}}, "beta_regularizer": null, "gamma_regularizer": null, "beta_constraint": null, "gamma_constraint": null}, "name": "batch_normalization_692", "inbound_nodes": [[["conv2d_692", 0, 0, {}]]]}, {"class_name": "Activation", "config": {"name": "activation_689", "trainable": false, "dtype": "float32", "activation": "relu"}, "name": "activation_689", "inbound_nodes": [[["batch_normalization_689", 0, 0, {}]]]}, {"class_name": "Activation", "config": {"name": "activation_692", "trainable": false, "dtype": "float32", "activation": "relu"}, "name": "activation_692", "inbound_nodes": [[["batch_normalization_692", 0, 0, {}]]]}, {"class_name": "Concatenate", "config": {"name": "block17_2_mixed", "trainable": false, "dtype": "float32", "axis": 3}, "name": "block17_2_mixed", "inbound_nodes": [[["activation_689", 0, 0, {}], ["activation_692", 0, 0, {}]]]}, {"class_name": "Conv2D", "config": {"name": "block17_2_conv", "trainable": false, "dtype": "float32", "filters": 1088, "kernel_size": [1, 1], "strides": [1, 1], "padding": "same", "data_format": "channels_last", "dilation_rate": [1, 1], "groups": 1, "activation": "linear", "use_bias": true, "kernel_initializer": {"class_name": "GlorotUniform", "config": {"seed": null}}, "bias_initializer": {"class_name": "Zeros", "config": {}}, "kernel_regularizer": null, "bias_regularizer": null, "activity_regularizer": null, "kernel_constraint": null, "bias_constraint": null}, "name": "block17_2_conv", "inbound_nodes": [[["block17_2_mixed", 0, 0, {}]]]}, {"class_name": "Lambda", "config": {"name": "block17_2", "trainable": false, "dtype": "float32", "function": ["4wIAAAAAAAAAAgAAAAMAAABTAAAAcxQAAAB8AGQBGQB8AGQCGQB8ARQAFwBTACkDTukAAAAA6QEA\nAACpACkC2gZpbnB1dHPaBXNjYWxlcgMAAAByAwAAAPpiL3Vzci9sb2NhbC9saWIvcHl0aG9uMy42\nL2Rpc3QtcGFja2FnZXMvdGVuc29yZmxvdy9weXRob24va2VyYXMvYXBwbGljYXRpb25zL2luY2Vw\ndGlvbl9yZXNuZXRfdjIucHnaCDxsYW1iZGE+dAEAAPMAAAAA\n", null, null], "function_type": "lambda", "module": "tensorflow.python.keras.applications.inception_resnet_v2", "output_shape": [21, 25, 1088], "output_shape_type": "raw", "output_shape_module": null, "arguments": {"scale": 0.1}}, "name": "block17_2", "inbound_nodes": [[["block17_1_ac", 0, 0, {}], ["block17_2_conv", 0, 0, {}]]]}, {"class_name": "Activation", "config": {"name": "block17_2_ac", "trainable": false, "dtype": "float32", "activation": "relu"}, "name": "block17_2_ac", "inbound_nodes": [[["block17_2", 0, 0, {}]]]}, {"class_name": "Conv2D", "c…
el_initializer": {"class_name": "GlorotUniform", "config": {"seed": null}}, "bias_initializer": {"class_name": "Zeros", "config": {}}, "kernel_regularizer": null, "bias_regularizer": null, "activity_regularizer": null, "kernel_constraint": null, "bias_constraint": null}, "name": "block8_4_conv", "inbound_nodes": [[["block8_4_mixed", 0, 0, {}]]]}, {"class_name": "Lambda", "config": {"name": "block8_4", "trainable": true, "dtype": "float32", "function": ["4wIAAAAAAAAAAgAAAAMAAABTAAAAcxQAAAB8AGQBGQB8AGQCGQB8ARQAFwBTACkDTukAAAAA6QEA\nAACpACkC2gZpbnB1dHPaBXNjYWxlcgMAAAByAwAAAPpiL3Vzci9sb2NhbC9saWIvcHl0aG9uMy42\nL2Rpc3QtcGFja2FnZXMvdGVuc29yZmxvdy9weXRob24va2VyYXMvYXBwbGljYXRpb25zL2luY2Vw\ndGlvbl9yZXNuZXRfdjIucHnaCDxsYW1iZGE+dAEAAPMAAAAA\n", null, null], "function_type": "lambda", "module": "tensorflow.python.keras.applications.inception_resnet_v2", "output_shape": [10, 12, 2080], "output_shape_type": "raw", "output_shape_module": null, "arguments": {"scale": 0.2}}, "name": "block8_4", "inbound_nodes": [[["block8_3_ac", 0, 0, {}], ["block8_4_conv", 0, 0, {}]]]}, {"class_name": "Activation", "config": {"name": "block8_4_ac", "trainable": true, "dtype": "float32", "activation": "relu"}, "name": "block8_4_ac", "inbound_nodes": [[["block8_4", 0, 0, {}]]]}, {"class_name": "Conv2D", "config": {"name": "conv2d_789", "trainable": true, "dtype": "float32", "filters": 192, "kernel_size": [1, 1], "strides": [1, 1], "padding": "same", "data_format": "channels_last", "dilation_rate": [1, 1], "groups": 1, "activation": "linear", "use_bias": false, "kernel_initializer": {"class_name": "GlorotUniform", "config": {"seed": null}}, "bias_initializer": {"class_name": "Zeros", "config": {}}, "kernel_regularizer": null, "bias_regularizer": null, "activity_regularizer": null, "kernel_constraint": null, "bias_constraint": null}, "name": "conv2d_789", "inbound_nodes": [[["block8_4_ac", 0, 0, {}]]]}, {"class_name": "BatchNormalization", "config": {"name": "batch_normalization_789", "trainable": true, "dtype": "float32", "axis": [3], "momentum": 0.99, "epsilon": 0.001, "center": true, "scale": false, "beta_initializer": {"class_name": "Zeros", "config": {}}, "gamma_initializer": {"class_name": "Ones", "config": {}}, "moving_mean_initializer": {"class_name": "Zeros", "config": {}}, "moving_variance_initializer": {"class_name": "Ones", "config": {}}, "beta_regularizer": null, "gamma_regularizer": null, "beta_constraint": null, "gamma_constraint": null}, "name": "batch_normalization_789", "inbound_nodes": [[["conv2d_789", 0, 0, {}]]]}, {"class_name": "Activation", "config": {"name": "activation_789", "trainable": true, "dtype": "float32", "activation": "relu"}, "name": "activation_789", "inbound_nodes": [[["batch_normalization_789", 0, 0, {}]]]}, {"class_name": "Conv2D", "config": {"name": "conv2d_790", "trainable": true, "dtype": "float32", "filters": 224, "kernel_size": [1, 3], "strides": [1, 1], "padding": "same", "data_format": "channels_last", "dilation_rate": [1, 1], "groups": 1, "activation": "linear", "use_bias": false, "kernel_initializer": {"class_name": "GlorotUniform", "config": {"seed": null}}, "bias_initializer": {"class_name": "Zeros", "config": {}}, "kernel_regularizer": null, "bias_regularizer": null, "activity_regularizer": null, "kernel_constraint": null, "bias_constraint": null}, "name": "conv2d_790", "inbound_nodes": [[["activation_789", 0, 0, {}]]]}, {"class_name": "BatchNormalization", "config": {"name": "batch_normalization_790", "trainable": true, "dtype": "float32", "axis": [3], "momentum": 0.99, "epsilon": 0.001, "center": true, "scale": false, "beta_initializer": {"class_name": "Zeros", "config": {}}, "gamma_initializer": {"class_name": "Ones", "config": {}}, "moving_mean_initializer": {"class_name": "Zeros", "config": {}}, "moving_variance_initializer": {"class_name": "Ones", "config": {}}, "beta_regularizer": null, "gamma_regularizer": null, "beta_constraint": null, "gamma_constraint": null}, "name": "batch_normalization_790", "inbound_nodes": [[["conv2d_790", 0, 0, {}]]]}, {"class_name": "Activation", "config": {"name": "activation_790", "trainable": true, "dtype": "float32", "activation": "relu"}, "name": "activation_790", "inbound_nodes": [[["batch_normalization_790", 0, 0, {}]]]}, {"class_name": "Conv2D", "config": {"name": "conv2d_788", "trainable": true, "dtype": "float32", "filters": 192, "kernel_size": [1, 1], "strides": [1, 1], "padding": "same", "data_format": "channels_last", "dilation_rate": [1, 1], "groups": 1, "activation": "linear", "use_bias": false, "kernel_initializer": {"class_name": "GlorotUniform", "config": {"seed": null}}, "bias_initializer": {"class_name": "Zeros", "config": {}}, "kernel_regularizer": null, "bias_regularizer": null, "activity_regularizer": null, "kernel_constraint": null, "bias_constraint": null}, "name": "conv2d_788", "inbound_nodes": [[["block8_4_ac", 0, 0, {}]]]}, {"class_name": "Conv2D", "config": {"name": "conv2d_791", "trainable": true, "dtype": "float32", "filters": 256, "kernel_size": [3, 1], "strides": [1, 1], "padding": "same", "data_format": "channels_last", "dilation_rate": [1, 1], "groups": 1, "activation": "linear", "use_bias": false, "kernel_initializer": {"class_name": "GlorotUniform", "config": {"seed": null}}, "bias_initializer": {"class_name": "Zeros", "config": {}}, "kernel_regularizer": null, "bias_regularizer": null, "activity_regularizer": null, "kernel_constraint": null, "bias_constraint": null}, "name": "conv2d_791", "inbound_nodes": [[["activation_790", 0, 0, {}]]]}, {"class_name": "BatchNormalization", "config": {"name": "batch_normalization_788", "trainable": true, "dtype": "float32", "axis": [3], "momentum": 0.99, "epsilon": 0.001, "center": true, "scale": false, "beta_initializer": {"class_name": "Zeros", "config": {}}, "gamma_initializer": {"class_name": "Ones", "config": {}}, "moving_mean_initializer": {"class_name": "Zeros", "config": {}}, "moving_variance_initializer": {"class_name": "Ones", "config": {}}, "beta_regularizer": null, "gamma_regularizer": null, "beta_constraint": null, "gamma_constraint": null}, "name": "batch_normalization_788", "inbound_nodes": [[["conv2d_788", 0, 0, {}]]]}, {"class_name": "BatchNormalization", "config": {"name": "batch_normalization_791", "trainable": true, "dtype": "float32", "axis": [3], "momentum": 0.99, "epsilon": 0.001, "center": true, "scale": false, "beta_initializer": {"class_name": "Zeros", "config": {}}, "gamma_initializer": {"class_name": "Ones", "config": {}}, "moving_mean_initializer": {"class_name": "Zeros", "config": {}}, "moving_variance_initializer": {"class_name": "Ones", "config": {}}, "beta_regularizer": null, "gamma_regularizer": null, "beta_constraint": null, "gamma_constraint": null}, "name": "batch_normalization_791", "inbound_nodes": [[["conv2d_791", 0, 0, {}]]]}, {"class_name": "Activation", "config": {"name": "activation_788", "trainable": true, "dtype": "float32", "activation": "relu"}, "name": "activation_788", "inbound_nodes": [[["batch_normalization_788", 0, 0, {}]]]}, {"class_name": "Activation", "config": {"name": "activation_791", "trainable": true, "dtype": "float32", "activation": "relu"}, "name": "activation_791", "inbound_nodes": [[["batch_normalization_791", 0, 0, {}]]]}, {"class_name": "Concatenate", "config": {"name": "block8_5_mixed", "trainable": true, "dtype": "float32", "axis": 3}, "name": "block8_5_mixed", "inbound_nodes": [[["activation_788", 0, 0, {}], ["activation_791", 0, 0, {}]]]}, {"class_name": "Conv2D", "config": {"name": "block8_5_conv", "trainable": true, "dtype": "float32", "filters": 2080, "kernel_size": [1, 1], "strides": [1, 1], "padding": "same", "data_format": "channels_last", "dilation_rate": [1, 1], "groups": 1, "activation": "linear", "use_bias": true, "kernel_initializer": {"class_name": "GlorotUniform", "config": {"seed": null}}, "bias_initializer": {"class_name": "Zeros", "config": {}}, "kernel_regularizer": null, "bias_regularizer": null, "activity_regularizer": null, "kernel_constraint": null, "bias_constraint": null}, "name": "block8_5_conv", "inbound_nodes": [[["block8_5_mixed", 0, 0, {}]]]}, {"class_name": "Lambda", "config": {"name": "block8_5", "trainable": true, "dtype": "float32", "function": ["4wIAAAAAAAAAAgAAAAMAAABTAAAAcxQAAAB8AGQBGQB8AGQCGQB8ARQAFwBTACkDTukAAAAA6QEA\nAACpACkC2gZpbnB1dHPaBXNjYWxlcgMAAAByAwAAAPpiL3Vzci9sb2NhbC9saWIvcHl0aG9uMy42\nL2Rpc3QtcGFja2FnZXMvdGVuc29yZmxvdy9weXRob24va2VyYXMvYXBwbGljYXRpb25zL2luY2Vw\ndGlvbl9yZXNuZXRfdjIucHnaCDxsYW1iZGE+dAEAAPMAAAAA\n", null, null], "function_type": "lambda", "module": "tensorflow.python.keras.applications.inception_resnet_v2", "output_shape": [10, 12, 2080], "output_shape_type": "raw", "output_shape_module": null, "arguments": {"scale": 0.2}}, "name": "block8_5", "inbound_nodes": [[["block8_4_ac", 0, 0, {}], ["block8_5_conv", 0, 0, {}]]]}, {"class_name": "Activation", "config": {"name": "block8_5_ac", "trainable": true, "dtype": "float32", "activation": "relu"}, "name": "block8_5_ac", "inbound_nodes": [[["block8_5", 0, 0, {}]]]}, {"class_name": "Conv2D", "config": {"name": "conv2d_793", "trainable": true, "dtype": "float32", "filters": 192, "kernel_size": [1, 1], "strides": [1, 1], "padding": "same", "data_format": "channels_last", "dilation_rate": [1, 1], "groups": 1, "activation": "linear", "use_bias": false, "kernel_initializer": {"class_name": "GlorotUniform", "config": {"seed": null}}, "bias_initializer": {"class_name": "Zeros", "config": {}}, "kernel_regularizer": null, "bias_regularizer": null, "activity_regularizer": null, "kernel_constraint": null, "bias_constraint": null}, "name": "conv2d_793", "inbound_nodes": [[["block8_5_ac", 0, 0, {}]]]}, {"class_name": "BatchNormalization", "config": {"name": "batch_normalization_793", "trainable": true, "dtype": "float32", "axis": [3], "momentum": 0.99, "epsilon": 0.001, "center": true, "scale": false, "beta_initializer": {"class_name": "Zeros", "config": {}}, "gamma_initializer": {"class_name": "Ones", "config": {}}, "moving_mean_initializer": {"class_name": "Zeros", "config": {}}, "moving_variance_initializer": {"class_name": "Ones", "config": {}}, "beta_regularizer": null, "gamma_regularizer": null, "beta_constraint": null, "gamma_constraint": null}, "name": "batch_normalization_793", "inbound_nodes": [[["conv2d_793", 0, 0, {}]]]}, {"class_name": "Activation", "config": {"name": "activation_793", "trainable": true, "dtype": "float32", "activation": "relu"}, "name": "activation_793", "inbound_nodes": [[["batch_normalization_793", 0, 0, {}]]]}, {"class_name": "Conv2D", "config": {"name": "conv2d_794", "trainable": true, "dtype": "float32", "filters": 224, "kernel_size": [1, 3], "strides": [1, 1], "padding": "same", "data_format": "channels_last", "dilation_rate": [1, 1], "groups": 1, "activation": "linear", "use_bias": false, "kernel_initializer": {"class_name": "GlorotUniform", "config": {"seed": null}}, "bias_initializer": {"class_name": "Zeros", "config": {}}, "kernel_regularizer": null, "bias_regularizer": null, "activity_regularizer": null, "kernel_constraint": null, "bias_constraint": null}, "name": "conv2d_794", "inbound_nodes": [[["activation_793", 0, 0, {}]]]}, {"class_name": "BatchNormalization", "config": {"name": "batch_normalization_794", "trainable": true, "dtype": "float32", "axis": [3], "momentum": 0.99, "epsilon": 0.001, "center": true, "scale": false, "beta_initializer": {"class_name": "Zeros", "config": {}}, "gamma_initializer": {"class_name": "Ones", "config": {}}, "moving_mean_initializer": {"class_name": "Zeros", "config": {}}, "moving_variance_initializer": {"class_name": "Ones", "config": {}}, "beta_regularizer": null, "gamma_regularizer": null, "beta_constraint": null, "gamma_constraint": null}, "name": "batch_normalization_794", "inbound_nodes": [[["conv2d_794", 0, 0, {}]]]}, {"class_name": "Activation", "config": {"name": "activation_794", "trainable": true, "dtype": "float32", "activation": "relu"}, "name": "activation_794", "inbound_nodes": [[["batch_normalization_794", 0, 0, {}]]]}, {"class_name": "Conv2D", "config": {"name": "conv2d_792", "trainable": true, "dtype": "float32", "filters": 192, "kernel_size": [1, 1], "strides": [1, 1], "padding": "same", "data_format": "channels_last", "dilation_rate": [1, 1], "groups": 1, "activation": "linear", "use_bias": false, "kernel_initializer": {"class_name": "GlorotUniform", "config": {"seed": null}}, "bias_initializer": {"class_name": "Zeros", "config": {}}, "kernel_regularizer": null, "bias_regularizer": null, "activity_regularizer": null, "kernel_constraint": null, "bias_constraint": null}, "name": "conv2d_792", "inbound_nodes": [[["block8_5_ac", 0, 0, {}]]]}, {"class_name": "Conv2D", "config": {"name": "conv2d_795", "trainable": true, "dtype": "float32", "filters": 256, "kernel_size": [3, 1], "strides": [1, 1], "padding": "same", "data_format": "channels_last", "dilation_rate": [1, 1], "groups": 1, "activation": "linear", "use_bias": false, "kernel_initializer": {"class_name": "GlorotUniform", "config": {"seed": null}}, "bias_initializer": {"class_name": "Zeros", "config": {}}, "kernel_regularizer": null, "bias_regularizer": null, "activity_regularizer": null, "kernel_constraint": null, "bias_constraint": null}, "name": "conv2d_795", "inbound_nodes": [[["activation_794", 0, 0, {}]]]}, {"class_name": "BatchNormalization", "config": {"name": "batch_normalization_792", "trainable": true, "dtype": "float32", "axis": [3], "momentum": 0.99, "epsilon": 0.001, "center": true, "scale": false, "beta_initializer": {"class_name": "Zeros", "config": {}}, "gamma_initializer": {"class_name": "Ones", "config": {}}, "moving_mean_initializer": {"class_name": "Zeros", "config": {}}, "moving_variance_initializer": {"class_name": "Ones", "config": {}}, "beta_regularizer": null, "gamma_regularizer": null, "beta_constraint": null, "gamma_constraint": null}, "name": "batch_normalization_792", "inbound_nodes": [[["conv2d_792", 0, 0, {}]]]}, {"class_name": "BatchNormalization", "config": {"name": "batch_normalization_795", "trainable": true, "dtype": "float32", "axis": [3], "momentum": 0.99, "epsilon": 0.001, "center": true, "scale": false, "beta_initializer": {"class_name": "Zeros", "config": {}}, "gamma_initializer": {"class_name": "Ones", "config": {}}, "moving_mean_initializer": {"class_name": "Zeros", "config": {}}, "moving_variance_initializer": {"class_name": "Ones", "config": {}}, "beta_regularizer": null, "gamma_regularizer": null, "beta_constraint": null, "gamma_constraint": null}, "name": "batch_normalization_795", "inbound_nodes": [[["conv2d_795", 0, 0, {}]]]}, {"class_name": "Activation", "config": {"name": "activation_792", "trainable": true, "dtype": "float32", "activation": "relu"}, "name": "activation_792", "inbound_nodes": [[["batch_normalization_792", 0, 0, {}]]]}, {"class_name": "Activation", "config": {"name": "activation_795", "trainable": true, "dtype": "float32", "activation": "relu"}, "name": "activation_795", "inbound_nodes": [[["batch_normalization_795", 0, 0, {}]]]}, {"class_name": "Concatenate", "config": {"name": "block8_6_mixed", "trainable": true, "dtype": "float32", "axis": 3}, "name": "block8_6_mixed", "inbound_nodes": [[["activation_792", 0, 0, {}], ["activation_795", 0, 0, {}]]]}, {"class_name": "Conv2D", "config": {"name": "block8_6_conv", "trainable": true, "dtype": "float32", "filters": 2080, "kernel_size": [1, 1], "strides": [1, 1], "padding": "same", "data_format": "channels_last", "dilation_rate": [1, 1], "groups": 1, "activation": "linear", "use_bias": true, "kernel_initializer": {"class_name": "GlorotUniform", "config": {"seed": null}}, "bias_initializer": {"class_name": "Zeros", "config": {}}, "kernel_regularizer": null, "bias_regularizer": null, "activity_regularizer": null, "kernel_constraint": null, "bias_constraint": null}, "name": "block8_6_conv", "inbound_nodes": [[["block8_6_mixed", 0, 0, {}]]]}, {"class_name": "Lambda", "config": {"name": "block8_6", "trainable": true, "dtype": "float32", "function": ["4wIAAAAAAAAAAgAAAAMAAABTAAAAcxQAAAB8AGQBGQB8AGQCGQB8ARQAFwBTACkDTukAAAAA6QEA\nAACpACkC2gZpbnB1dHPaBXNjYWxlcgMAAAByAwAAAPpiL3Vzci9sb2NhbC9saWIvcHl0aG9uMy42\nL2Rpc3QtcGFja2FnZXMvdGVuc29yZmxvdy9weXRob24va2VyYXMvYXBwbGljYXRpb25zL2luY2Vw\ndGlvbl9yZXNuZXRfdjIucHnaCDxsYW1iZGE+dAEAAPMAAAAA\n", null, null], "function_type": "lambda", "module": "tensorflow.python.keras.applications.inception_resnet_v2", "output_shape": [10, 12, 2080], "output_shape_type": "raw", "output_shape_module": null, "arguments": {"scale": 0.2}}, "name": "block8_6", "inbound_nodes": [[["block8_5_ac", 0, 0, {}], ["block8_6_conv", 0, 0, {}]]]}, {"class_name": "Activation", "config": {"name": "block8_6_ac", "trainable": true, "dtype": "float32", "activation": "relu"}, "name": "block8_6_ac", "inbound_nodes": [[["block8_6", 0, 0, {}]]]}, {"class_name": "Conv2D", "config": {"name": "conv2d_797", "trainable": true, "dtype": "float32", "filters": 192, "kernel_size": [1, 1], "strides": [1, 1], "padding": "same", "data_format": "channels_last", "dilation_rate": [1, 1], "groups": 1, "activation": "linear", "use_bias": false, "kernel_initializer": {"class_name": "GlorotUniform", "config": {"seed": null}}, "bias_initializer": {"class_name": "Zeros", "config": {}}, "kernel_regularizer": null, "bias_regularizer": null, "activity_regularizer": null, "kernel_constraint": null, "bias_constraint": null}, "name": "conv2d_797", "inbound_nodes": [[["block8_6_ac", 0, 0, {}]]]}, {"class_name": "BatchNormalization", "config": {"name": "batch_normalization_797", "trainable": true, "dtype": "float32", "axis": [3], "momentum": 0.99, "epsilon": 0.001, "center": true, "scale": false, "beta_initializer": {"class_name": "Zeros", "config": {}}, "gamma_initializer": {"class_name": "Ones", "config": {}}, "moving_mean_initializer": {"class_name": "Zeros", "config": {}}, "moving_variance_initializer": {"class_name": "Ones", "config": {}}, "beta_regularizer": null, "gamma_regularizer": null, "beta_constraint": null, "gamma_constraint": null}, "name": "batch_normalization_797", "inbound_nodes": [[["conv2d_797", 0, 0, {}]]]}, {"class_name": "Activation", "config": {"name": "activation_797", "trainable": true, "dtype": "float32", "activation": "relu"}, "name": "activation_797", "inbound_nodes": [[["batch_normalization_797", 0, 0, {}]]]}, {"class_name": "Conv2D", "config": {"name": "conv2d_798", "trainable": true, "dtype": "float32", "filters": 224, "kernel_size": [1, 3], "strides": [1, 1], "padding": "same", "data_format": "channels_last", "dilation_rate": [1, 1], "groups": 1, "activation": "linear", "use_bias": false, "kernel_initializer": {"class_name": "GlorotUniform", "config": {"seed": null}}, "bias_initializer": {"class_name": "Zeros", "config": {}}, "kernel_regularizer": null, "bias_regularizer": null, "activity_regularizer": null, "kernel_constraint": null, "bias_constraint": null}, "name": "conv2d_798", "inbound_nodes": [[["activation_797", 0, 0, {}]]]}, {"class_name": "BatchNormalization", "config": {"name": "batch_normalization_798", "trainable": true, "dtype": "float32", "axis": [3], "momentum": 0.99, "epsilon": 0.001, "center": true, "scale": false, "beta_initializer": {"class_name": "Zeros", "config": {}}, "gamma_initializer": {"class_name": "Ones", "config": {}}, "moving_mean_initializer": {"class_name": "Zeros", "config": {}}, "moving_variance_initializer": {"class_name": "Ones", "config": {}}, "beta_regularizer": null, "gamma_regularizer": null, "beta_constraint": null, "gamma_constraint": null}, "name": "batch_normalization_798", "inbound_nodes": [[["conv2d_798", 0, 0, {}]]]}, {"class_name": "Activation", "config": {"name": "activation_798", "trainable": true, "dtype": "float32", "activation": "relu"}, "name": "activation_798", "inbound_nodes": [[["batch_normalization_798", 0, 0, {}]]]}, {"class_name": "Conv2D", "config": {"name": "conv2d_796", "trainable": true, "dtype": "float32", "filters": 192, "kernel_size": [1, 1], "strides": [1, 1], "padding": "same", "data_format": "channels_last", "dilation_rate": [1, 1], "groups": 1, "activation": "linear", "use_bias": false, "kernel_initializer": {"class_name": "GlorotUniform", "config": {"seed": null}}, "bias_initializer": {"class_name": "Zeros", "config": {}}, "kernel_regularizer": null, "bias_regularizer": null, "activity_regularizer": null, "kernel_constraint": null, "bias_constraint": null}, "name": "conv2d_796", "inbound_nodes": [[["block8_6_ac", 0, 0, {}]]]}, {"class_name": "Conv2D", "config": {"name": "conv2d_799", "trainable": true, "dtype": "float32", "filters": 256, "kernel_size": [3, 1], "strides": [1, 1], "padding": "same", "data_format": "channels_last", "dilation_rate": [1, 1], "groups": 1, "activation": "linear", "use_bias": false, "kernel_initializer": {"class_name": "GlorotUniform", "config": {"seed": null}}, "bias_initializer": {"class_name": "Zeros", "config": {}}, "kernel_regularizer": null, "bias_regularizer": null, "activity_regularizer": null, "kernel_constraint": null, "bias_constraint": null}, "name": "conv2d_799", "inbound_nodes": [[["activation_798", 0, 0, {}]]]}, {"class_name": "BatchNormalization", "config": {"name": "batch_normalization_796", "trainable": true, "dtype": "float32", "axis": [3], "momentum": 0.99, "epsilon": 0.001, "center": true, "scale": false, "beta_initializer": {"class_name": "Zeros", "config": {}}, "gamma_initializer": {"class_name": "Ones", "config": {}}, "moving_mean_initializer": {"class_name": "Zeros", "config": {}}, "moving_variance_initializer": {"class_name": "Ones", "config": {}}, "beta_regularizer": null, "gamma_regularizer": null, "beta_constraint": null, "gamma_constraint": null}, "name": "batch_normalization_796", "inbound_nodes": [[["conv2d_796", 0, 0, {}]]]}, {"class_name": "BatchNormalization", "config": {"name": "batch_normalization_799", "trainable": true, "dtype": "float32", "axis": [3], "momentum": 0.99, "epsilon": 0.001, "center": true, "scale": false, "beta_initializer": {"class_name": "Zeros", "config": {}}, "gamma_initializer": {"class_name": "Ones", "config": {}}, "moving_mean_initializer": {"class_name": "Zeros", "config": {}}, "moving_variance_initializer": {"class_name": "Ones", "config": {}}, "beta_regularizer": null, "gamma_regularizer": null, "beta_constraint": null, "gamma_constraint": null}, "name": "batch_normalization_799", "inbound_nodes": [[["conv2d_799", 0, 0, {}]]]}, {"class_name": "Activation", "config": {"name": "activation_796", "trainable": true, "dtype": "float32", "activation": "relu"}, "name": "activation_796", "inbound_nodes": [[["batch_normalization_796", 0, 0, {}]]]}, {"class_name": "Activation", "config": {"name": "activation_799", "trainable": true, "dtype": "float32", "activation": "relu"}, "name": "activation_799", "inbound_nodes": [[["batch_normalization_799", 0, 0, {}]]]}, {"class_name": "Concatenate", "config": {"name": "block8_7_mixed", "trainable": true, "dtype": "float32", "axis": 3}, "name": "block8_7_mixed", "inbound_nodes": [[["activation_796", 0, 0, {}], ["activation_799", 0, 0, {}]]]}, {"class_name": "Conv2D", "config": {"name": "block8_7_conv", "trainable": true, "dtype": "float32", "filters": 2080, "kernel_size": [1, 1], "strides": [1, 1], "padding": "same", "data_format": "channels_last", "dilation_rate": [1, 1], "groups": 1, "activation": "linear", "use_bias": true, "kernel_initializer": {"class_name": "GlorotUniform", "config": {"seed": null}}, "bias_initializer": {"class_name": "Zeros", "config": {}}, "kernel_regularizer": null, "bias_regularizer": null, "activity_regularizer": null, "kernel_constraint": null, "bias_constraint": null}, "name": "block8_7_conv", "inbound_nodes": [[["block8_7_mixed", 0, 0, {}]]]}, {"class_name": "Lambda", "config": {"name": "block8_7", "trainable": true, "dtype": "float32", "function": ["4wIAAAAAAAAAAgAAAAMAAABTAAAAcxQAAAB8AGQBGQB8AGQCGQB8ARQAFwBTACkDTukAAAAA6QEA\nAACpACkC2gZpbnB1dHPaBXNjYWxlcgMAAAByAwAAAPpiL3Vzci9sb2NhbC9saWIvcHl0aG9uMy42\nL2Rpc3QtcGFja2FnZXMvdGVuc29yZmxvdy9weXRob24va2VyYXMvYXBwbGljYXRpb25zL2luY2Vw\ndGlvbl9yZXNuZXRfdjIucHnaCDxsYW1iZGE+dAEAAPMAAAAA\n", null, null], "function_type": "lambda", "module": "tensorflow.python.keras.applications.inception_resnet_v2", "output_shape": [10, 12, 2080], "output_shape_type": "raw", "output_shape_module": null, "arguments": {"scale": 0.2}}, "name": "block8_7", "inbound_nodes": [[["block8_6_ac", 0, 0, {}], ["block8_7_conv", 0, 0, {}]]]}, {"class_name": "Activation", "config": {"name": "block8_7_ac", "trainable": true, "dtype": "float32", "activation": "relu"}, "name": "block8_7_ac", "inbound_nodes": [[["block8_7", 0, 0, {}]]]}, {"class_name": "Conv2D", "config": {"name": "conv2d_801", "trainable": true, "dtype": "float32", "filters": 192, "kernel_size": [1, 1], "strides": [1, 1], "padding": "same", "data_format": "channels_last", "dilation_rate": [1, 1], "groups": 1, "activation": "linear", "use_bias": false, "kernel_initializer": {"class_name": "GlorotUniform", "config": {"seed": null}}, "bias_initializer": {"class_name": "Zeros", "config": {}}, "kernel_regularizer": null, "bias_regularizer": null, "activity_regularizer": null, "kernel_constraint": null, "bias_constraint": null}, "name": "conv2d_801", "inbound_nodes": [[["block8_7_ac", 0, 0, {}]]]}, {"class_name": "BatchNormalization", "config": {"name": "batch_normalization_801", "trainable": true, "dtype": "float32", "axis": [3], "momentum": 0.99, "epsilon": 0.001, "center": true, "scale": false, "beta_initializer": {"class_name": "Zeros", "config": {}}, "gamma_initializer": {"class_name": "Ones", "config": {}}, "moving_mean_initializer": {"class_name": "Zeros", "config": {}}, "moving_variance_initializer": {"class_name": "Ones", "config": {}}, "beta_regularizer": null, "gamma_regularizer": null, "beta_constraint": null, "gamma_constraint": null}, "name": "batch_normalization_801", "inbound_nodes": [[["conv2d_801", 0, 0, {}]]]}, {"class_name": "Activation", "config": {"name": "activation_801", "trainable": true, "dtype": "float32", "activation": "relu"}, "name": "activation_801", "inbound_nodes": [[["batch_normalization_801", 0, 0, {}]]]}, {"class_name": "Conv2D", "config": {"name": "conv2d_802", "trainable": true, "dtype": "float32", "filters": 224, "kernel_size": [1, 3], "strides": [1, 1], "padding": "same", "data_format": "channels_last", "dilation_rate": [1, 1], "groups": 1, "activation": "linear", "use_bias": false, "kernel_initializer": {"class_name": "GlorotUniform", "config": {"seed": null}}, "bias_initializer": {"class_name": "Zeros", "config": {}}, "kernel_regularizer": null, "bias_regularizer": null, "activity_regularizer": null, "kernel_constraint": null, "bias_constraint": null}, "name": "conv2d_802", "inbound_nodes": [[["activation_801", 0, 0, {}]]]}, {"class_name": "BatchNormalization", "config": {"name": "batch_normalization_802", "trainable": true, "dtype": "float32", "axis": [3], "momentum": 0.99, "epsilon": 0.001, "center": true, "scale": false, "beta_initializer": {"class_name": "Zeros", "config": {}}, "gamma_initializer": {"class_name": "Ones", "config": {}}, "moving_mean_initializer": {"class_name": "Zeros", "config": {}}, "moving_variance_initializer": {"class_name": "Ones", "config": {}}, "beta_regularizer": null, "gamma_regularizer": null, "beta_constraint": null, "gamma_constraint": null}, "name": "batch_normalization_802", "inbound_nodes": [[["conv2d_802", 0, 0, {}]]]}, {"class_name": "Activation", "config": {"name": "activation_802", "trainable": true, "dtype": "float32", "activation": "relu"}, "name": "activation_802", "inbound_nodes": [[["batch_normalization_802", 0, 0, {}]]]}, {"class_name": "Conv2D", "config": {"name": "conv2d_800", "trainable": true, "dtype": "float32", "filters": 192, "kernel_size": [1, 1], "strides": [1, 1], "padding": "same", "data_format": "channels_last", "dilation_rate": [1, 1], "groups": 1, "activation": "linear", "use_bias": false, "kernel_initializer": {"class_name": "GlorotUniform", "config": {"seed": null}}, "bias_initializer": {"class_name": "Zeros", "config": {}}, "kernel_regularizer": null, "bias_regularizer": null, "activity_regularizer": null, "kernel_constraint": null, "bias_constraint": null}, "name": "conv2d_800", "inbound_nodes": [[["block8_7_ac", 0, 0, {}]]]}, {"class_name": "Conv2D", "config": {"name": "conv2d_803", "trainable": true, "dtype": "float32", "filters": 256, "kernel_size": [3, 1], "strides": [1, 1], "padding": "same", "data_format": "channels_last", "dilation_rate": [1, 1], "groups": 1, "activation": "linear", "use_bias": false, "kernel_initializer": {"class_name": "GlorotUniform", "config": {"seed": null}}, "bias_initializer": {"class_name": "Zeros", "config": {}}, "kernel_regularizer": null, "bias_regularizer": null, "activity_regularizer": null, "kernel_constraint": null, "bias_constraint": null}, "name": "conv2d_803", "inbound_nodes": [[["activation_802", 0, 0, {}]]]}, {"class_name": "BatchNormalization", "config": {"name": "batch_normalization_800", "trainable": true, "dtype": "float32", "axis": [3], "momentum": 0.99, "epsilon": 0.001, "center": true, "scale": false, "beta_initializer": {"class_name": "Zeros", "config": {}}, "gamma_initializer": {"class_name": "Ones", "config": {}}, "moving_mean_initializer": {"class_name": "Zeros", "config": {}}, "moving_variance_initializer": {"class_name": "Ones", "config": {}}, "beta_regularizer": null, "gamma_regularizer": null, "beta_constraint": null, "gamma_constraint": null}, "name": "batch_normalization_800", "inbound_nodes": [[["conv2d_800", 0, 0, {}]]]}, {"class_name": "BatchNormalization", "config": {"name": "batch_normalization_803", "trainable": true, "dtype": "float32", "axis": [3], "momentum": 0.99, "epsilon": 0.001, "center": true, "scale": false, "beta_initializer": {"class_name": "Zeros", "config": {}}, "gamma_initializer": {"class_name": "Ones", "config": {}}, "moving_mean_initializer": {"class_name": "Zeros", "config": {}}, "moving_variance_initializer": {"class_name": "Ones", "config": {}}, "beta_regularizer": null, "gamma_regularizer": null, "beta_constraint": null, "gamma_constraint": null}, "name": "batch_normalization_803", "inbound_nodes": [[["conv2d_803", 0, 0, {}]]]}, {"class_name": "Activation", "config": {"name": "activation_800", "trainable": true, "dtype": "float32", "activation": "relu"}, "name": "activation_800", "inbound_nodes": [[["batch_normalization_800", 0, 0, {}]]]}, {"class_name": "Activation", "config": {"name": "activation_803", "trainable": true, "dtype": "float32", "activation": "relu"}, "name": "activation_803", "inbound_nodes": [[["batch_normalization_803", 0, 0, {}]]]}, {"class_name": "Concatenate", "config": {"name": "block8_8_mixed", "trainable": true, "dtype": "float32", "axis": 3}, "name": "block8_8_mixed", "inbound_nodes": [[["activation_800", 0, 0, {}], ["activation_803", 0, 0, {}]]]}, {"class_name": "Conv2D", "config": {"name": "block8_8_conv", "trainable": true, "dtype": "float32", "filters": 2080, "kernel_size": [1, 1], "strides": [1, 1], "padding": "same", "data_format": "channels_last", "dilation_rate": [1, 1], "groups": 1, "activation": "linear", "use_bias": true, "kernel_initializer": {"class_name": "GlorotUniform", "config": {"seed": null}}, "bias_initializer": {"class_name": "Zeros", "config": {}}, "kernel_regularizer": null, "bias_regularizer": null, "activity_regularizer": null, "kernel_constraint": null, "bias_constraint": null}, "name": "block8_8_conv", "inbound_nodes": [[["block8_8_mixed", 0, 0, {}]]]}, {"class_name": "Lambda", "config": {"name": "block8_8", "trainable": true, "dtype": "float32", "function": ["4wIAAAAAAAAAAgAAAAMAAABTAAAAcxQAAAB8AGQBGQB8AGQCGQB8ARQAFwBTACkDTukAAAAA6QEA\nAACpACkC2gZpbnB1dHPaBXNjYWxlcgMAAAByAwAAAPpiL3Vzci9sb2NhbC9saWIvcHl0aG9uMy42\nL2Rpc3QtcGFja2FnZXMvdGVuc29yZmxvdy9weXRob24va2VyYXMvYXBwbGljYXRpb25zL2luY2Vw\ndGlvbl9yZXNuZXRfdjIucHnaCDxsYW1iZGE+dAEAAPMAAAAA\n", null, null], "function_type": "lambda", "module": "tensorflow.python.keras.applications.inception_resnet_v2", "output_shape": [10, 12, 2080], "output_shape_type": "raw", "output_shape_module": null, "arguments": {"scale": 0.2}}, "name": "block8_8", "inbound_nodes": [[["block8_7_ac", 0, 0, {}], ["block8_8_conv", 0, 0, {}]]]}, {"class_name": "Activation", "config": {"name": "block8_8_ac", "trainable": true, "dtype": "float32", "activation": "relu"}, "name": "block8_8_ac", "inbound_nodes": [[["block8_8", 0, 0, {}]]]}, {"class_name": "Conv2D", "config": {"name": "conv2d_805", "trainable": true, "dtype": "float32", "filters": 192, "kernel_size": [1, 1], "strides": [1, 1], "padding": "same", "data_format": "channels_last", "dilation_rate": [1, 1], "groups": 1, "activation": "linear", "use_bias": false, "kernel_initializer": {"class_name": "GlorotUniform", "config": {"seed": null}}, "bias_initializer": {"class_name": "Zeros", "config": {}}, "kernel_regularizer": null, "bias_regularizer": null, "activity_regularizer": null, "kernel_constraint": null, "bias_constraint": null}, "name": "conv2d_805", "inbound_nodes": [[["block8_8_ac", 0, 0, {}]]]}, {"class_name": "BatchNormalization", "config": {"name": "batch_normalization_805", "trainable": true, "dtype": "float32", "axis": [3], "momentum": 0.99, "epsilon": 0.001, "center": true, "scale": false, "beta_initializer": {"class_name": "Zeros", "config": {}}, "gamma_initializer": {"class_name": "Ones", "config": {}}, "moving_mean_initializer": {"class_name": "Zeros", "config": {}}, "moving_variance_initializer": {"class_name": "Ones", "config": {}}, "beta_regularizer": null, "gamma_regularizer": null, "beta_constraint": null, "gamma_constraint": null}, "name": "batch_normalization_805", "inbound_nodes": [[["conv2d_805", 0, 0, {}]]]}, {"class_name": "Activation", "config": {"name": "activation_805", "trainable": true, "dtype": "float32", "activation": "relu"}, "name": "activation_805", "inbound_nodes": [[["batch_normalization_805", 0, 0, {}]]]}, {"class_name": "Conv2D", "config": {"name": "conv2d_806", "trainable": true, "dtype": "float32", "filters": 224, "kernel_size": [1, 3], "strides": [1, 1], "padding": "same", "data_format": "channels_last", "dilation_rate": [1, 1], "groups": 1, "activation": "linear", "use_bias": false, "kernel_initializer": {"class_name": "GlorotUniform", "config": {"seed": null}}, "bias_initializer": {"class_name": "Zeros", "config": {}}, "kernel_regularizer": null, "bias_regularizer": null, "activity_regularizer": null, "kernel_constraint": null, "bias_constraint": null}, "name": "conv2d_806", "inbound_nodes": [[["activation_805", 0, 0, {}]]]}, {"class_name": "BatchNormalization", "config": {"name": "batch_normalization_806", "trainable": true, "dtype": "float32", "axis": [3], "momentum": 0.99, "epsilon": 0.001, "center": true, "scale": false, "beta_initializer": {"class_name": "Zeros", "config": {}}, "gamma_initializer": {"class_name": "Ones", "config": {}}, "moving_mean_initializer": {"class_name": "Zeros", "config": {}}, "moving_variance_initializer": {"class_name": "Ones", "config": {}}, "beta_regularizer": null, "gamma_regularizer": null, "beta_constraint": null, "gamma_constraint": null}, "name": "batch_normalization_806", "inbound_nodes": [[["conv2d_806", 0, 0, {}]]]}, {"class_name": "Activation", "config": {"name": "activation_806", "trainable": true, "dtype": "float32", "activation": "relu"}, "name": "activation_806", "inbound_nodes": [[["batch_normalization_806", 0, 0, {}]]]}, {"class_name": "Conv2D", "config": {"name": "conv2d_804", "trainable": true, "dtype": "float32", "filters": 192, "kernel_size": [1, 1], "strides": [1, 1], "padding": "same", "data_format": "channels_last", "dilation_rate": [1, 1], "groups": 1, "activation": "linear", "use_bias": false, "kernel_initializer": {"class_name": "GlorotUniform", "config": {"seed": null}}, "bias_initializer": {"class_name": "Zeros", "config": {}}, "kernel_regularizer": null, "bias_regularizer": null, "activity_regularizer": null, "kernel_constraint": null, "bias_constraint": null}, "name": "conv2d_804", "inbound_nodes": [[["block8_8_ac", 0, 0, {}]]]}, {"class_name": "Conv2D", "config": {"name": "conv2d_807", "trainable": true, "dtype": "float32", "filters": 256, "kernel_size": [3, 1], "strides": [1, 1], "padding": "same", "data_format": "channels_last", "dilation_rate": [1, 1], "groups": 1, "activation": "linear", "use_bias": false, "kernel_initializer": {"class_name": "GlorotUniform", "config": {"seed": null}}, "bias_initializer": {"class_name": "Zeros", "config": {}}, "kernel_regularizer": null, "bias_regularizer": null, "activity_regularizer": null, "kernel_constraint": null, "bias_constraint": null}, "name": "conv2d_807", "inbound_nodes": [[["activation_806", 0, 0, {}]]]}, {"class_name": "BatchNormalization", "config": {"name": "batch_normalization_804", "trainable": true, "dtype": "float32", "axis": [3], "momentum": 0.99, "epsilon": 0.001, "center": true, "scale": false, "beta_initializer": {"class_name": "Zeros", "config": {}}, "gamma_initializer": {"class_name": "Ones", "config": {}}, "moving_mean_initializer": {"class_name": "Zeros", "config": {}}, "moving_variance_initializer": {"class_name": "Ones", "config": {}}, "beta_regularizer": null, "gamma_regularizer": null, "beta_constraint": null, "gamma_constraint": null}, "name": "batch_normalization_804", "inbound_nodes": [[["conv2d_804", 0, 0, {}]]]}, {"class_name": "BatchNormalization", "config": {"name": "batch_normalization_807", "trainable": true, "dtype": "float32", "axis": [3], "momentum": 0.99, "epsilon": 0.001, "center": true, "scale": false, "beta_initializer": {"class_name": "Zeros", "config": {}}, "gamma_initializer": {"class_name": "Ones", "config": {}}, "moving_mean_initializer": {"class_name": "Zeros", "config": {}}, "moving_variance_initializer": {"class_name": "Ones", "config": {}}, "beta_regularizer": null, "gamma_regularizer": null, "beta_constraint": null, "gamma_constraint": null}, "name": "batch_normalization_807", "inbound_nodes": [[["conv2d_807", 0, 0, {}]]]}, {"class_name": "Activation", "config": {"name": "activation_804", "trainable": true, "dtype": "float32", "activation": "relu"}, "name": "activation_804", "inbound_nodes": [[["batch_normalization_804", 0, 0, {}]]]}, {"class_name": "Activation", "config": {"name": "activation_807", "trainable": true, "dtype": "float32", "activation": "relu"}, "name": "activation_807", "inbound_nodes": [[["batch_normalization_807", 0, 0, {}]]]}, {"class_name": "Concatenate", "config": {"name": "block8_9_mixed", "trainable": true, "dtype": "float32", "axis": 3}, "name": "block8_9_mixed", "inbound_nodes": [[["activation_804", 0, 0, {}], ["activation_807", 0, 0, {}]]]}, {"class_name": "Conv2D", "config": {"name": "block8_9_conv", "trainable": true, "dtype": "float32", "filters": 2080, "kernel_size": [1, 1], "strides": [1, 1], "padding": "same", "data_format": "channels_last", "dilation_rate": [1, 1], "groups": 1, "activation": "linear", "use_bias": true, "kernel_initializer": {"class_name": "GlorotUniform", "config": {"seed": null}}, "bias_initializer": {"class_name": "Zeros", "config": {}}, "kernel_regularizer": null, "bias_regularizer": null, "activity_regularizer": null, "kernel_constraint": null, "bias_constraint": null}, "name": "block8_9_conv", "inbound_nodes": [[["block8_9_mixed", 0, 0, {}]]]}, {"class_name": "Lambda", "config": {"name": "block8_9", "trainable": true, "dtype": "float32", "function": ["4wIAAAAAAAAAAgAAAAMAAABTAAAAcxQAAAB8AGQBGQB8AGQCGQB8ARQAFwBTACkDTukAAAAA6QEA\nAACpACkC2gZpbnB1dHPaBXNjYWxlcgMAAAByAwAAAPpiL3Vzci9sb2NhbC9saWIvcHl0aG9uMy42\nL2Rpc3QtcGFja2FnZXMvdGVuc29yZmxvdy9weXRob24va2VyYXMvYXBwbGljYXRpb25zL2luY2Vw\ndGlvbl9yZXNuZXRfdjIucHnaCDxsYW1iZGE+dAEAAPMAAAAA\n", null, null], "function_type": "lambda", "module": "tensorflow.python.keras.applications.inception_resnet_v2", "output_shape": [10, 12, 2080], "output_shape_type": "raw", "output_shape_module": null, "arguments": {"scale": 0.2}}, "name": "block8_9", "inbound_nodes": [[["block8_8_ac", 0, 0, {}], ["block8_9_conv", 0, 0, {}]]]}, {"class_name": "Activation", "config": {"name": "block8_9_ac", "trainable": true, "dtype": "float32", "activation": "relu"}, "name": "block8_9_ac", "inbound_nodes": [[["block8_9", 0, 0, {}]]]}, {"class_name": "Conv2D", "config": {"name": "conv2d_809", "trainable": true, "dtype": "float32", "filters": 192, "kernel_size": [1, 1], "strides": [1, 1], "padding": "same", "data_format": "channels_last", "dilation_rate": [1, 1], "groups": 1, "activation": "linear", "use_bias": false, "kernel_initializer": {"class_name": "GlorotUniform", "config": {"seed": null}}, "bias_initializer": {"class_name": "Zeros", "config": {}}, "kernel_regularizer": null, "bias_regularizer": null, "activity_regularizer": null, "kernel_constraint": null, "bias_constraint": null}, "name": "conv2d_809", "inbound_nodes": [[["block8_9_ac", 0, 0, {}]]]}, {"class_name": "BatchNormalization", "config": {"name": "batch_normalization_809", "trainable": true, "dtype": "float32", "axis": [3], "momentum": 0.99, "epsilon": 0.001, "center": true, "scale": false, "beta_initializer": {"class_name": "Zeros", "config": {}}, "gamma_initializer": {"class_name": "Ones", "config": {}}, "moving_mean_initializer": {"class_name": "Zeros", "config": {}}, "moving_variance_initializer": {"class_name": "Ones", "config": {}}, "beta_regularizer": null, "gamma_regularizer": null, "beta_constraint": null, "gamma_constraint": null}, "name": "batch_normalization_809", "inbound_nodes": [[["conv2d_809", 0, 0, {}]]]}, {"class_name": "Activation", "config": {"name": "activation_809", "trainable": true, "dtype": "float32", "activation": "relu"}, "name": "activation_809", "inbound_nodes": [[["batch_normalization_809", 0, 0, {}]]]}, {"class_name": "Conv2D", "config": {"name": "conv2d_810", "trainable": true, "dtype": "float32", "filters": 224, "kernel_size": [1, 3], "strides": [1, 1], "padding": "same", "data_format": "channels_last", "dilation_rate": [1, 1], "groups": 1, "activation": "linear", "use_bias": false, "kernel_initializer": {"class_name": "GlorotUniform", "config": {"seed": null}}, "bias_initializer": {"class_name": "Zeros", "config": {}}, "kernel_regularizer": null, "bias_regularizer": null, "activity_regularizer": null, "kernel_constraint": null, "bias_constraint": null}, "name": "conv2d_810", "inbound_nodes": [[["activation_809", 0, 0, {}]]]}, {"class_name": "BatchNormalization", "config": {"name": "batch_normalization_810", "trainable": true, "dtype": "float32", "axis": [3], "momentum": 0.99, "epsilon": 0.001, "center": true, "scale": false, "beta_initializer": {"class_name": "Zeros", "config": {}}, "gamma_initializer": {"class_name": "Ones", "config": {}}, "moving_mean_initializer": {"class_name": "Zeros", "config": {}}, "moving_variance_initializer": {"class_name": "Ones", "config": {}}, "beta_regularizer": null, "gamma_regularizer": null, "beta_constraint": null, "gamma_constraint": null}, "name": "batch_normalization_810", "inbound_nodes": [[["conv2d_810", 0, 0, {}]]]}, {"class_name": "Activation", "config": {"name": "activation_810", "trainable": true, "dtype": "float32", "activation": "relu"}, "name": "activation_810", "inbound_nodes": [[["batch_normalization_810", 0, 0, {}]]]}, {"class_name": "Conv2D", "config": {"name": "conv2d_808", "trainable": true, "dtype": "float32", "filters": 192, "kernel_size": [1, 1], "strides": [1, 1], "padding": "same", "data_format": "channels_last", "dilation_rate": [1, 1], "groups": 1, "activation": "linear", "use_bias": false, "kernel_initializer": {"class_name": "GlorotUniform", "config": {"seed": null}}, "bias_initializer": {"class_name": "Zeros", "config": {}}, "kernel_regularizer": null, "bias_regularizer": null, "activity_regularizer": null, "kernel_constraint": null, "bias_constraint": null}, "name": "conv2d_808", "inbound_nodes": [[["block8_9_ac", 0, 0, {}]]]}, {"class_name": "Conv2D", "config": {"name": "conv2d_811", "trainable": true, "dtype": "float32", "filters": 256, "kernel_size": [3, 1], "strides": [1, 1], "padding": "same", "data_format": "channels_last", "dilation_rate": [1, 1], "groups": 1, "activation": "linear", "use_bias": false, "kernel_initializer": {"class_name": "GlorotUniform", "config": {"seed": null}}, "bias_initializer": {"class_name": "Zeros", "config": {}}, "kernel_regularizer": null, "bias_regularizer": null, "activity_regularizer": null, "kernel_constraint": null, "bias_constraint": null}, "name": "conv2d_811", "inbound_nodes": [[["activation_810", 0, 0, {}]]]}, {"class_name": "BatchNormalization", "config": {"name": "batch_normalization_808", "trainable": true, "dtype": "float32", "axis": [3], "momentum": 0.99, "epsilon": 0.001, "center": true, "scale": false, "beta_initializer": {"class_name": "Zeros", "config": {}}, "gamma_initializer": {"class_name": "Ones", "config": {}}, "moving_mean_initializer": {"class_name": "Zeros", "config": {}}, "moving_variance_initializer": {"class_name": "Ones", "config": {}}, "beta_regularizer": null, "gamma_regularizer": null, "beta_constraint": null, "gamma_constraint": null}, "name": "batch_normalization_808", "inbound_nodes": [[["conv2d_808", 0, 0, {}]]]}, {"class_name": "BatchNormalization", "config": {"name": "batch_normalization_811", "trainable": true, "dtype": "float32", "axis": [3], "momentum": 0.99, "epsilon": 0.001, "center": true, "scale": false, "beta_initializer": {"class_name": "Zeros", "config": {}}, "gamma_initializer": {"class_name": "Ones", "config": {}}, "moving_mean_initializer": {"class_name": "Zeros", "config": {}}, "moving_variance_initializer": {"class_name": "Ones", "config": {}}, "beta_regularizer": null, "gamma_regularizer": null, "beta_constraint": null, "gamma_constraint": null}, "name": "batch_normalization_811", "inbound_nodes": [[["conv2d_811", 0, 0, {}]]]}, {"class_name": "Activation", "config": {"name": "activation_808", "trainable": true, "dtype": "float32", "activation": "relu"}, "name": "activation_808", "inbound_nodes": [[["batch_normalization_808", 0, 0, {}]]]}, {"class_name": "Activation", "config": {"name": "activation_811", "trainable": true, "dtype": "float32", "activation": "relu"}, "name": "activation_811", "inbound_nodes": [[["batch_normalization_811", 0, 0, {}]]]}, {"class_name": "Concatenate", "config": {"name": "block8_10_mixed", "trainable": true, "dtype": "float32", "axis": 3}, "name": "block8_10_mixed", "inbound_nodes": [[["activation_808", 0, 0, {}], ["activation_811", 0, 0, {}]]]}, {"class_name": "Conv2D", "config": {"name": "block8_10_conv", "trainable": true, "dtype": "float32", "filters": 2080, "kernel_size": [1, 1], "strides": [1, 1], "padding": "same", "data_format": "channels_last", "dilation_rate": [1, 1], "groups": 1, "activation": "linear", "use_bias": true, "kernel_initializer": {"class_name": "GlorotUniform", "config": {"seed": null}}, "bias_initializer": {"class_name": "Zeros", "config": {}}, "kernel_regularizer": null, "bias_regularizer": null, "activity_regularizer": null, "kernel_constraint": null, "bias_constraint": null}, "name": "block8_10_conv", "inbound_nodes": [[["block8_10_mixed", 0, 0, {}]]]}, {"class_name": "Lambda", "config": {"name": "block8_10", "trainable": true, "dtype": "float32", "function": ["4wIAAAAAAAAAAgAAAAMAAABTAAAAcxQAAAB8AGQBGQB8AGQCGQB8ARQAFwBTACkDTukAAAAA6QEA\nAACpACkC2gZpbnB1dHPaBXNjYWxlcgMAAAByAwAAAPpiL3Vzci9sb2NhbC9saWIvcHl0aG9uMy42\nL2Rpc3QtcGFja2FnZXMvdGVuc29yZmxvdy9weXRob24va2VyYXMvYXBwbGljYXRpb25zL2luY2Vw\ndGlvbl9yZXNuZXRfdjIucHnaCDxsYW1iZGE+dAEAAPMAAAAA\n", null, null], "function_type": "lambda", "module": "tensorflow.python.keras.applications.inception_resnet_v2", "output_shape": [10, 12, 2080], "output_shape_type": "raw", "output_shape_module": null, "arguments": {"scale": 1.0}}, "name": "block8_10", "inbound_nodes": [[["block8_9_ac", 0, 0, {}], ["block8_10_conv", 0, 0, {}]]]}, {"class_name": "Conv2D", "config": {"name": "conv_7b", "trainable": true, "dtype": "float32", "filters": 1536, "kernel_size": [1, 1], "strides": [1, 1], "padding": "same", "data_format": "channels_last", "dilation_rate": [1, 1], "groups": 1, "activation": "linear", "use_bias": false, "kernel_initializer": {"class_name": "GlorotUniform", "config": {"seed": null}}, "bias_initializer": {"class_name": "Zeros", "config": {}}, "kernel_regularizer": null, "bias_regularizer": null, "activity_regularizer": null, "kernel_constraint": null, "bias_constraint": null}, "name": "conv_7b", "inbound_nodes": [[["block8_10", 0, 0, {}]]]}, {"class_name": "BatchNormalization", "config": {"name": "conv_7b_bn", "trainable": true, "dtype": "float32", "axis": [3], "momentum": 0.99, "epsilon": 0.001, "center": true, "scale": false, "beta_initializer": {"class_name": "Zeros", "config": {}}, "gamma_initializer": {"class_name": "Ones", "config": {}}, "moving_mean_initializer": {"class_name": "Zeros", "config": {}}, "moving_variance_initializer": {"class_name": "Ones", "config": {}}, "beta_regularizer": null, "gamma_regularizer": null, "beta_constraint": null, "gamma_constraint": null}, "name": "conv_7b_bn", "inbound_nodes": [[["conv_7b", 0, 0, {}]]]}, {"class_name": "Activation", "config": {"name": "conv_7b_ac", "trainable": true, "dtype": "float32", "activation": "relu"}, "name": "conv_7b_ac", "inbound_nodes": [[["conv_7b_bn", 0, 0, {}]]]}], "input_layers": [["input_4", 0, 0]], "output_layers": [["conv_7b_ac", 0, 0]]}}, {"class_name": "GlobalAveragePooling2D", "config": {"name": "global_average_pooling2d_3", "trainable": true, "dtype": "float32", "data_format": "channels_last"}}, {"class_name": "Dropout", "config": {"name": "dropout_3", "trainable": true, "dtype": "float32", "rate": 0.3, "noise_shape": null, "seed": null}}, {"class_name": "Dense", "config": {"name": "dense_3", "trainable": true, "dtype": "float32", "units": 2, "activation": "softmax", "use_bias": true, "kernel_initializer": {"class_name": "GlorotUniform", "config": {"seed": null}}, "bias_initializer": {"class_name": "Zeros", "config": {}}, "kernel_regularizer": null, "bias_regularizer": null, "activity_regularizer": null, "kernel_constraint": null, "bias_constraint": null}}]}, "keras_version": "2.4.0", "backend": "tensorflow"}